best_model.pt (torch, 105850 bytes, 7 tensors)

cnn.conv.weight f4 [32, 5, 3]
000000 cf 0d 4c bd a5 1f 9d be 6a df 76 3d 93 3e 31 3e
       -0.049817856 -0.30688205 0.060271658 0.17309026
000010 0d 4b 44 bd 89 6d f4 3d ac 6a 7f bd eb 61 c6 be
       -0.047923137 0.11934955 -0.06235759 -0.3874658
000020 fc 73 de 3e f6 ee dd bd 04 43 3e be 9a 12 1d 3e
       0.43447864 -0.10836594 -0.18580252 0.15339127
000030 30 30 39 bd a7 69 90 bb 04 c6 ae bb aa cd fd bc
       -0.04521197 -0.004407126 -0.005333664 -0.030981857
000040 1a ab f4 bb 71 00 87 3e 8c b4 86 be 82 ee 5a 3d
       -0.007466686 0.26367524 -0.2630962 0.053450115
000050 1d 9a b9 3e 0d 0b 80 3c 9d 8a b2 bd 5b 79 f1 3e
       0.36250392 0.01563027 -0.08717845 0.471629
000060 1f e6 6d be c8 fd 77 bd ad b2 7c 3d 88 8f 20 be
       -0.23232315 -0.06054476 0.061693836 -0.15679753
000070 f8 14 18 3e 3f d1 98 bb f0 72 55 3c 56 3b 1d be
       0.14851749 -0.004663616 0.0130278915 -0.15354666
000080 7f 50 a7 bd bf eb 83 be e7 c8 0e 3e 41 4a 07 be
       -0.0816965 -0.25765797 0.13943826 -0.1321192
000090 2e 0a b3 bd 36 af ae 3e e0 08 f0 be 78 bd 65 be
       -0.08742176 0.3411805 -0.4688177 -0.22435558
0000a0 8a 38 24 3e 66 bd e2 be 30 f9 ee ba c2 bd 20 be
       0.16037193 -0.44285125 -0.0018232223 -0.15697387
0000b0 ba fe c9 3c 2f ef 4f be e0 28 16 be 2f 82 67 3e
       0.024657596 -0.20306085 -0.1466403 0.22608255
0000c0 a5 80 1d be 68 50 2f be 82 40 16 3f 8c 7d 98 bd
       -0.15381105 -0.17120516 0.5869218 -0.07445821
0000d0 e5 fd 86 3a ee ae fb 3e f2 5c 0b be fb ab e8 bd
       0.0010299055 0.49156898 -0.13609675 -0.11360928
0000e0 bc 6f 43 3e 17 8f 59 3e e8 c1 c1 be 4d b6 70 3d
       0.19085592 0.2124599 -0.3784325 0.058767606
0000f0 e6 52 f7 3c 05 93 b2 ba 73 0f 03 be 4f d4 11 3d
       0.030190896 -0.0013624138 -0.12798862 0.035602864
000100 3b 13 df bc 9a 43 34 bf d9 a5 02 be 50 25 22 be
       -0.02723085 -0.7041565 -0.12758578 -0.15834546
000110 4b 7c c5 be 6f 21 ea 3d ed 2e 28 3e c8 2f ee be
       -0.3857139 0.11432158 0.16424151 -0.4652083
000120 0e e7 72 bd 88 4f e6 bd 1e 0a 2c 3e f4 79 20 3e
       -0.059302382 -0.11245638 0.16800734 0.15671521
000130 ec b3 1e 3e f4 c2 96 3e f9 57 55 3d e3 07 11 be
       0.15498322 0.29445612 0.05208585 -0.14163165
000140 f8 2d 22 3d c4 1e 58 3e af aa 3c bd 9f 63 1d 3e
       0.03959462 0.21105486 -0.046061214 0.15370034
000150 2c 5d 54 ba f6 97 e5 be a0 bd 2e 3e 78 2f 55 be
       -0.0008101042 -0.448425 0.17064524 -0.20818889
000160 a2 e1 4a 3d a8 91 10 3c 7c f3 15 be 56 3f 10 be
       0.049531586 0.00882379 -0.14643663 -0.1408666
000170 e7 d5 64 3c a6 ff 82 3e e9 a3 92 be a3 49 a1 bd
       0.013967014 0.2558567 -0.2864068 -0.07875373
000180 22 7f e6 3d 72 42 05 bd db 39 5a 3e 77 bb 9a 3e
       0.112547174 -0.03253407 0.21311133 0.3022115
000190 13 12 e3 be 6c 5f ab 3c b3 4d 90 bc df 8b a9 3c
       -0.44349727 0.020919524 -0.017615175 0.020696579
0001a0 97 5a 8c bd 3e 33 8a 3e 44 7e ed 3d 5d 5a 93 bd
       -0.06853216 0.2699222 0.11596349 -0.0719497
0001b0 d1 a3 ed 3d d3 9e 7f 3e c6 d5 e4 be f4 ab ac 3e
       0.11603511 0.2496293 -0.44694346 0.3372494
0001c0 ca 6b 0a 3e 19 c2 7c be c9 a7 87 3e 03 f0 f3 bd
       0.13517681 -0.24683417 0.26495197 -0.11911013
0001d0 ed 83 7a be cb 59 58 3d 96 b4 ab bd dc 5c ce bc
       -0.24464388 0.05282001 -0.083840534 -0.025190763
0001e0 16 d4 cb ba 14 35 af be 0b f1 77 3d f4 d4 1a 3e
       -0.0015550877 -0.34220183 0.06053261 0.15120298
0001f0 04 fe 18 be 4f 58 90 3e 48 63 2e 3e 78 3f b7 be
       -0.1494065 0.28192374 0.1703006 -0.3579061
000200 4f 6e c2 3e 1e 7e f5 bc b9 b6 c4 be f2 da 61 3e
       0.37974784 -0.029967364 -0.38420656 0.22056177
000210 79 24 8d 3e 70 f5 e7 3c 4b a9 01 be 0f 23 74 3e
       0.2756689 0.028315276 -0.12662236 0.23841499
000220 1c 84 12 be 30 af 30 be bd d2 65 be ec c5 c0 bd
       -0.14308208 -0.17254329 -0.22443672 -0.094127506
000230 3e e0 e5 bd d3 e4 1a 3e e3 68 b3 3d 8d 88 90 3e
       -0.112244114 0.15126352 0.0876024 0.2822918
000240 04 24 ba 3b f9 d6 45 3e f3 2c 93 3e e0 c1 94 bd
       0.005680563 0.19320287 0.2874523 -0.07263541
000250 5d fd c3 3b cb 53 93 be 1c 36 86 3d 37 20 68 3e
       0.005981131 -0.28774866 0.06553289 0.22668539
000260 21 cb 24 3d d3 46 31 be 64 17 de be 17 f0 94 3e
       0.04023278 -0.17312174 -0.4337722 0.29089424
000270 de 10 28 3d 14 1e 56 be ad 46 12 3e 53 b2 bd 3d
       0.04103171 -0.20909911 0.14284773 0.09262528
000280 98 74 d5 bd fc 2f ed 3d 27 7c b0 3d 72 e4 97 3a
       -0.10422629 0.11581418 0.0861743 0.0011588468
000290 d4 f2 55 bd 08 7a 05 3e 8e ea a7 bd a0 7b 22 bc
       -0.052233532 0.13034832 -0.08199035 -0.00991717
0002a0 4f 30 a2 be f9 50 78 3e 00 8c b6 bd 78 2a 03 3e
       -0.31677482 0.24249639 -0.08913422 0.1280917
0002b0 d9 e5 fe 3e 37 93 e7 be 0a 4b 0a be ee 33 7e 3d
       0.49784735 -0.45229504 -0.13505188 0.062061243
0002c0 da ed c7 be 08 85 a5 bd c1 2a 04 3c 47 a8 4a bd
       -0.39048654 -0.08082014 0.008066834 -0.049476888
0002d0 a4 b0 51 be d2 61 43 3e 7d 01 1e bc 91 03 ff 3d
       -0.2047754 0.19080284 -0.0096439095 0.12451852
0002e0 0c 74 9b be 33 87 87 3e 53 56 fd 3b 3e 7d 97 be
       -0.30361974 0.26470336 0.007731238 -0.2958774
0002f0 80 2b 8e 3e df ab 70 be d5 11 02 be 11 eb 7c 3e
       0.27767563 -0.23503064 -0.12702115 0.24699046
000300 7b 90 2e bd 3b 21 f3 3c 1f 3d 91 be ea fb a5 be
       -0.042618256 0.029678931 -0.28366944 -0.32418758
000310 93 ec 98 3e 70 6d 90 be 6a a6 48 3e 2b 28 43 3d
       0.29867992 -0.28208494 0.19594732 0.04764573
000320 e0 62 a9 3e 09 5b c7 bc 13 ef 77 be f4 6a 2e 3e
       0.33083248 -0.024335401 -0.24212293 0.17032987
000330 eb 6e 8b bd 90 66 78 be 87 a1 54 3e 7e c8 ba be
       -0.06808265 -0.24257874 0.20764743 -0.36481088
000340 3c 54 cd bd 34 8a 3e be 1b 78 ab bd cb 11 8d 3e
       -0.10025832 -0.18607408 -0.08372518 0.27552637
000350 b5 3b 6a 3e 28 4f a2 3d 6f ad 40 3e 0d 4c 60 3e
       0.22874339 0.07925254 0.1881616 0.21904011
000360 b4 4a 0f be de 72 c6 3d f6 db a7 3e 77 ff ad be
       -0.1399334 0.09689878 0.32785004 -0.33983967
000370 5d fa 81 3e 24 f0 68 3e ea 6c 04 3e 18 39 b4 3d
       0.25386325 0.22747856 0.12932172 0.08799952
000380 81 a2 42 3d b9 d4 44 bd 62 b7 cd 3d 9d 26 91 3c
       0.047518257 -0.04805443 0.10044743 0.017718608
000390 a4 70 06 bd 03 99 d1 be 61 c3 31 3e e8 0a 9a 3d
       -0.032822266 -0.4093705 0.17359687 0.075216115
0003a0 42 4c ad be 6d 8a df 3e c2 e8 a4 bd 82 a5 91 be
       -0.33847243 0.43660298 -0.080522075 -0.28446585
0003b0 1a 0d c2 3e cb 7e 96 bd 18 b0 54 3d 97 87 cb 3d
       0.3790062 -0.073484026 0.05192575 0.09937971
0003c0 87 32 4a 3d bc 7d ae be c9 c8 02 be 0c ce f5 3d
       0.049364593 -0.34080303 -0.12771906 0.12002191
0003d0 96 42 fd be 23 05 e4 3d 0e 74 19 be 34 aa 89 bd
       -0.49464864 0.11133792 -0.14985678 -0.06721917
0003e0 65 6f a6 3e bc 3f 31 bd cd 60 e8 bd 4a 75 bc 3e
       0.32506862 -0.043273672 -0.11346588 0.36808234
0003f0 20 2f 62 3d 4d c4 21 bc 7d 02 b3 3c 0e 90 94 3d
       0.055220723 -0.009873462 0.021851772 0.07254039

cnn.conv.bias f4 [32]
000000 28 eb c8 3d 30 60 9b 3e 22 25 39 bd 94 b4 ab 3d
       0.098104775 0.30346823 -0.04520143 0.08384052
000010 0a c7 80 be 3c df 31 3e db 28 07 3e b2 d1 ac 3d
       -0.25151855 0.17370313 0.13199179 0.08438434
000020 5d c4 9d 3e a6 ab 6f 3e 2d 90 15 3e f3 e7 bb 3c
       0.30813876 0.23405322 0.1460578 0.02293775
000030 e0 74 aa bc 20 73 19 3d 26 83 48 3e d8 28 36 3e
       -0.020807683 0.037463307 0.19581279 0.17789018
000040 a5 4e 1f 3e 54 08 8b be 58 eb ee bd 14 10 0c 3e
       0.15557344 -0.2715479 -0.11665982 0.13678008
000050 6e 91 43 3e dd b6 d4 3d 78 a5 2d 3e 4d fe da bc
       0.19098446 0.10386441 0.16957653 -0.026732588
000060 68 7b 29 3e 61 0f 59 bd e9 9d 93 be 49 6b 6d 3e
       0.16550982 -0.052993182 -0.28831413 0.23185457
000070 9c 21 a3 3d b7 fc 1d 3e 9b 6c 53 3e 40 14 b7 3d
       0.07965395 0.15428434 0.20646898 0.08939409

lstm.lstm.weight_ih_l0 f4 [256, 32]
000000 7b c6 86 bd 1b 6a 04 3e 96 45 65 3d 1b 84 ca 3d
       -0.06580826 0.12931101 0.055974565 0.09888478
000010 dd ea 48 3e fb 48 94 bd 9d b4 1f bd ee 42 c9 3d
       0.19620843 -0.072404824 -0.038990606 0.09827219
000020 ec 2b 69 be 94 7e 68 3e f1 5c e3 bb 21 e3 4f bd
       -0.22770661 0.22704536 -0.0069385697 -0.050753716
000030 52 b7 84 3c 60 6a 00 bd 02 3f 3f 3d 23 fb 48 3a
       0.016200695 -0.031351447 0.04669095 0.0007666817
000040 ac e0 8d 3d 10 08 9b 3e 79 43 4e be 27 82 4d be
       0.069276184 0.3027959 -0.20142926 -0.2006918
000050 ac 41 9a 3a 4d 3d 18 3e 68 c3 e7 3e 22 19 09 3d
       0.0011768839 0.14867134 0.4526627 0.033471234
000060 62 3e 9d bc da 06 22 bd 4b 02 56 bb ef 8a bc bd
       -0.019194786 -0.039557315 -0.0032655175 -0.09206187
000070 2e af 9f 3e 2c 56 01 bd 92 90 91 be 0d e1 a1 3e
       0.3118834 -0.03157632 -0.2843061 0.31617013
000080 b9 ad 50 3e 39 b8 8f 3d 97 8d ce 3e f5 b1 03 3e
       0.2037877 0.070175596 0.403424 0.12860854
000090 7e c2 cd 3e ba a9 ce bc 05 92 f3 bd f1 36 30 bd
       0.40187448 -0.025227416 -0.118930854 -0.043021146
0000a0 c2 ce 8f bd d2 0a 1b 3e 35 b3 10 3e da e2 78 3e
       -0.07021858 0.15140846 0.14130862 0.24305287
0000b0 fc d8 8a 3c 5e a0 26 3e 5b a3 4d bc 9a a4 4c 3e
       0.01694917 0.16272113 -0.012551154 0.19984666
0000c0 2e a5 10 3e f1 98 8d be 0f 45 2b be a2 b1 10 3c
       0.14125511 -0.27655748 -0.16725563 0.008831413
0000d0 f6 b1 fb 3d 7e b7 b5 3d 0c f4 3c 3e de 99 5c bd
       0.12289803 0.08872889 0.18452471 -0.053857677
0000e0 b1 2e 0c 3d 1c 29 3d 3e 7f 9d 19 be 70 eb 96 bd
       0.034224216 0.18472713 -0.15001486 -0.07369125
0000f0 7e 31 a1 bd 90 b6 c5 3d d4 aa 62 bd e7 40 c5 3d
       -0.07870768 0.09653962 -0.055338696 0.0963152
000100 9b 06 59 3c 40 51 90 bc e8 26 71 be d3 ed a8 3d
       0.013246204 -0.017616868 -0.23549998 0.08248486
000110 62 80 1d bd 12 df 3d 3d a1 2f b5 3d ff 7c b1 3d
       -0.038452514 0.046355315 0.08846975 0.08666419
000120 a8 09 cb 3c ac 66 f8 3d 71 23 ae bd 9c 9d 35 be
       0.024784878 0.12128958 -0.08502854 -0.17735904
000130 06 52 ec 3c 56 bb ce bd 3c 70 b8 bc 94 a7 8b 3d
       0.028847706 -0.10094325 -0.022514455 0.06819072
000140 11 79 27 3e f5 97 13 be ff 7b 2c bd 4f ed b2 3d
       0.16354777 -0.14413436 -0.04211044 0.08736669
000150 e5 c6 17 be bb 1d 1a bc 36 f9 ff 3c dc 09 42 bd
       -0.14821966 -0.009406502 0.031246763 -0.047372684
000160 4a 6e ce bd bd 24 8c bb 10 2b 67 bc e1 fc 21 3e
       -0.1007963 -0.0042768405 -0.014109388 0.15819122
000170 85 38 b1 bd 59 c3 83 be 2e 19 d6 bc 5e 9f 29 bd
       -0.08653358 -0.25734976 -0.026135053 -0.04141175
000180 3c 91 c0 3c 84 c1 2d 3e 8d 9f 99 3d 9b f1 76 3d
       0.023506753 0.16968352 0.07501135 0.060289007
000190 48 e1 0b be 07 5f 42 3e a0 a5 6f bd 21 e7 c0 3c
       -0.13660157 0.18981563 -0.05850756 0.02354771
0001a0 f0 cd a9 3d 33 63 15 3e 61 d0 e3 bc 78 45 15 3b
       0.082912326 0.14588623 -0.027809324 0.0022777002
0001b0 b8 63 eb bb 7b 62 b6 bd 0b 53 28 3e 9a 1d 23 3e
       -0.0071835183 -0.089055024 0.16437928 0.15929261
0001c0 45 d5 da 3d b7 93 40 3d 3f bb 73 3d 35 16 bb 3d
       0.10685209 0.04701587 0.059504744 0.09135095
0001d0 3d ec 35 be 8e cc f9 3d f6 4e 27 3e 3b 61 ed bd
       -0.17765899 0.12197219 0.16338715 -0.11590811
0001e0 85 80 37 be d6 93 f7 bc 81 86 a2 bc 37 c2 da bd
       -0.1792012 -0.03022186 -0.019839527 -0.10681575
0001f0 b6 a2 0c 3e a2 e3 e2 bd 74 6f f5 3d 8c 0f 5f 3d
       0.13733944 -0.11078574 0.119841486 0.054458186
000200 96 a5 bb bd 73 a8 ab 3d ca 80 c9 3d b0 25 0b 3c
       -0.091624424 0.083817385 0.09839018 0.008492872
000210 c9 63 3b 3f 62 d7 27 3c b9 eb 77 3d e9 ca 9b 3e
       0.73199135 0.010244222 0.060527537 0.30428246
000220 a2 f4 2a bd 31 56 6f bd 2e 8e a7 bd 32 6b ec 3c
       -0.041737206 -0.058431808 -0.081814155 0.028859708
000230 9f dc cd 3c 00 fa 18 be 79 be 5c 3e 89 ed 06 3d
       0.025129614 -0.14939117 0.21557035 0.032941375
000240 a9 d1 d8 3d 0b bf 83 3e 81 91 1f 3e e2 15 03 be
       0.105868645 0.25731692 0.15582849 -0.12801316
000250 9c 15 64 3e 3a d3 dc 3e 50 1f 9c 3e ad 9a 35 3e
       0.22273868 0.43129903 0.3049264 0.17734785
000260 e5 52 04 bd 69 66 00 3d 11 7b 15 3e 79 5f 3c bd
       -0.032305617 0.031347666 0.14597727 -0.045989487
000270 09 0f d5 3d 24 dd f4 3c 5f 86 a6 3d 70 31 8a 3e
       0.10403258 0.029890604 0.08131098 0.26990843
000280 0f 3b 5e 3d 49 c2 a9 bd 83 fc bf 3c a2 fb 29 3e
       0.05425554 -0.0828901 0.023435837 0.16599897
000290 9a f6 15 3f 38 1e 76 3c 66 d9 bd 3d d6 a1 33 bd
       0.5857941 0.015021853 0.09269981 -0.04385551
0002a0 5f e1 22 3d 99 18 25 be 71 1a ad bd 4d 04 0f bd
       0.039765712 -0.16122665 -0.08452309 -0.03491621
0002b0 70 2c 38 3d c5 8a 1e be 13 09 bd 3b 8d fc 36 bd
       0.044964254 -0.15482624 0.005768904 -0.044674445
0002c0 b4 32 9b bd 19 42 c5 ba 9f ec 13 3e 76 64 90 3c
       -0.0757803 -0.0015049606 0.14445733 0.017626029
0002d0 6e df bc 3d 98 55 e5 3e d4 3d 2b 3f 14 09 a6 bc
       0.09222303 0.44791865 0.6689122 -0.020268
0002e0 58 bb cf 3c c6 c9 38 3c de 10 50 3d ab 71 de 3d
       0.025357887 0.011278575 0.050797336 0.10861524
0002f0 d5 47 aa bd 9d 70 20 bd 66 7f ff 3d a9 08 6a 3e
       -0.08314482 -0.039169896 0.12475471 0.22854866
000300 56 e8 c0 bc 54 ca 3b 3d 4d f8 7e bc 9e 30 47 3e
       -0.023548286 0.045847252 -0.015562129 0.1945214
000310 c1 a8 ec 3e 76 39 b6 bd 1b 30 e7 3d 36 e8 18 3e
       0.462225 -0.088976786 0.11288472 0.14932331
000320 86 0e 86 3e 80 b4 2f 3e 27 38 ec 3d b6 bb 38 3d
       0.26182956 0.17158699 0.11534148 0.04510089
000330 b7 81 ab bc 85 9e 6b bd 21 1a 3d 3e d6 9c ee 3d
       -0.020935876 -0.057524223 0.18466999 0.11651008
000340 2c 21 da 3c 5d 13 86 3e 8e 31 8a 3d 60 fd d7 3d
       0.026627146 0.26186648 0.06747733 0.10546374
000350 7f 9e 81 3d 71 94 ea 3d eb 99 81 3e 23 a6 37 bc
       0.06329059 0.11454094 0.25312743 -0.011209044
000360 73 7e a5 3c db 37 2c 3e 04 7e b0 3b eb 87 ad 3e
       0.020201897 0.16818182 0.005386116 0.3389276
000370 fe 3e 12 3e e7 20 80 bd 65 5c 01 3e 4c b9 8e 3e
       0.14281842 -0.062562756 0.12632902 0.27875745
000380 52 8a 47 be bb e0 73 be 82 9f ee 3d e2 6e 1f 3d
       -0.19486359 -0.23816197 0.116515175 0.038924105
000390 08 36 0d 3f 9a 10 13 be 7d ec 96 3b b7 e7 1c 3e
       0.5516057 -0.14361802 0.0046058283 0.15322767
0003a0 06 ea 17 be f4 7a 4e be 28 a4 9a bc 7d 4b a9 3d
       -0.14835367 -0.2016409 -0.018877104 0.08266351
0003b0 3a a8 5c bd 7f ab ea bd 5a 6c 22 be f7 35 72 be
       -0.05387137 -0.114584915 -0.15861645 -0.23653398
0003c0 84 81 8d bd 8c c4 8a 3d ce 3b b3 bc b1 9a 31 3d
       -0.06909469 0.067757696 -0.021879103 0.043360416
0003d0 27 3e 0d 3e ba 9f 93 3e a3 0a f2 3e 0f 78 83 3e
       0.1379324 0.288328 0.4727374 0.25677535
0003e0 55 6f b3 bd b5 e5 db 3d 2c fe 6c 3e 7e bd c2 3c
       -0.08761469 0.107371725 0.23143834 0.023771998
0003f0 22 a9 0b 3d 99 54 fc bd 99 85 20 be c2 dd ce 3e
       0.034096844 -0.12320823 -0.15675963 0.40403563

lstm.lstm.weight_hh_l0 f4 [256, 64]
000000 10 bc cb bd e0 d3 1d be 95 ce 07 bd f9 e2 f9 3d
       -0.099479795 -0.15412855 -0.033155996 0.12201495
000010 52 d0 1e bd 30 93 29 be 9e d4 18 3e 7b 96 c4 3e
       -0.03877289 -0.16560054 0.14924857 0.38396057
000020 82 29 68 3d ee 25 10 3e 49 b2 65 bc 3d 82 23 3c
       0.05668021 0.14076969 -0.014019557 0.009979782
000030 96 2f 7d be 99 e9 99 be 9d d5 e0 bd c1 9b 3d 3e
       -0.24725184 -0.30061033 -0.109782435 0.18516447
000040 53 71 3c be 32 57 70 3d a4 37 83 be 95 50 20 be
       -0.18402605 0.058676906 -0.25628388 -0.1565574
000050 25 c0 a1 bc 1c 53 de bc ee a3 81 bd 1e 4b 10 be
       -0.019744942 -0.027139239 -0.06330095 -0.14091155
000060 47 24 7e be 07 ac ae 3d 77 ed 3e 3e 69 b6 cf bd
       -0.24818526 0.08528905 0.18645273 -0.10142214
000070 49 37 a1 bd a3 6e 53 be 70 eb c3 bc 2d 38 d9 3c
       -0.07871873 -0.20647673 -0.023915976 0.026516045
000080 6e b4 8b 3e a2 a7 fe bd 51 72 82 be fe 38 82 3c
       0.27286094 -0.12434317 -0.25477841 0.015896317
000090 14 b5 02 be 15 14 59 3c 0d 35 20 be 79 02 df bb
       -0.12764388 0.013249417 -0.15645237 -0.0068057147
0000a0 b4 31 b0 be ab f3 06 be 05 f9 d5 bd e9 b8 3e bd
       -0.3441292 -0.1317889 -0.10447887 -0.046563063
0000b0 c2 54 a0 bd 4e b8 54 be 4d dd 45 3e a0 a3 1d 3c
       -0.07828666 -0.20773432 0.19322701 0.009621531
0000c0 5d 94 f5 bd 48 9b 90 be 71 77 e8 bd d1 e2 fe bb
       -0.11991189 -0.2824347 -0.11350907 -0.0077785035
0000d0 42 07 2d be 4a 40 23 be ac 55 19 bd f6 3c 68 bd
       -0.168973 -0.15942493 -0.03743522 -0.056698762
0000e0 81 c7 8a 3d 39 4e 19 3e 6b 0f e2 3d a3 85 40 3d
       0.067763336 0.14971246 0.11038097 0.047002446
0000f0 a9 b8 f3 3e 17 0c ea 3e f9 64 7a be 81 63 f0 3b
       0.47601822 0.4571235 -0.2445258 0.0073360805
000100 a5 dd fe 3d 23 85 61 3d f9 d8 20 3e 46 7f bf bb
       0.12444619 0.05505861 0.15707768 -0.0058440296
000110 0a b8 82 3e 46 d7 cb be 45 d0 e7 3d 48 ac 8b 3d
       0.25531036 -0.39812678 0.11319021 0.068199694
000120 69 63 c3 3d 99 ed 0e 3e 4f 44 b7 3e a4 7d ad 3e
       0.09540445 0.13957824 0.35794303 0.3388492
000130 76 da df bd 21 52 6a be ad a9 a6 3d 8a db 54 3e
       -0.1093034 -0.22882892 0.08137832 0.20786873
000140 a6 7e 82 be 31 11 8e bd 3a 7b da 3b e9 e3 74 3d
       -0.2548725 -0.06936873 0.006667522 0.059787665
000150 26 df a1 3c b3 4f eb bd 02 26 20 3d a7 07 36 be
       0.019759726 -0.11489811 0.039098747 -0.17776357
000160 26 d1 a5 bd e4 e2 cf 3d d7 e6 2a 3e 86 11 28 be
       -0.080965325 0.10150698 0.16689621 -0.16412935
000170 93 08 57 be 1c 69 13 be ef 18 03 3e f6 cd 33 3e
       -0.20999365 -0.14395565 0.1280248 0.17559037
000180 2e 91 97 be b2 a2 0d be b2 06 4b 3e 7b b5 9b 3a
       -0.2960295 -0.13831595 0.19826773 0.0011879647
000190 21 c5 0d bf 5f d4 5c 3d e5 7b 6c be ef e0 ce bb
       -0.5537892 0.05391347 -0.23094137 -0.0063134353
0001a0 df b9 18 bd b6 86 cd bd 2f 38 40 be ac 2f 35 be
       -0.037286635 -0.1003546 -0.18771432 -0.17693967
0001b0 ca d2 8b 3d 47 97 7a bb 4e 43 a8 3d d3 58 2a bd
       0.06827314 -0.003823714 0.08215962 -0.041588616
0001c0 e3 79 80 be 9d 16 17 bf ee cd fe bd e2 ec 09 be
       -0.25092992 -0.5901888 -0.12441622 -0.1346927
0001d0 8b 2d 24 be 2d 45 6b 3c 36 a2 67 3d 7a b7 9d bd
       -0.16032998 0.0143597545 0.05655118 -0.07701011
0001e0 8f 80 9f 3e f3 cf fe 3e ae 90 99 3e be 37 b2 bd
       0.3115277 0.49768028 0.29993194 -0.08702038
0001f0 cb 3a e0 3b 98 03 82 3e db 36 7b bd c4 92 2a be
       0.006842946 0.25393367 -0.06133161 -0.16657549
000200 97 f4 ab 3d 91 42 2b bb 73 19 37 be 5e b5 1a 3e
       0.08396261 -0.0026132206 -0.17880802 0.15108249
000210 a8 4a f1 bd 2c df 31 bd 0a 3a 2b be 29 18 bf 3d
       -0.11781818 -0.043425724 -0.16721359 0.0933078
000220 4e 95 27 bc d2 70 99 3a 81 06 4b 3d d2 33 3b be
       -0.010228468 0.0011706597 0.04956675 -0.18281487
000230 45 02 16 3c 0b 3f e9 3d 72 cf b4 bd e4 34 43 bd
       0.009155815 0.113889776 -0.088286296 -0.047657862
000240 e4 7a bf bc 4c 2b 7d 3d d6 f2 e6 3d 97 4d 6e bd
       -0.023374029 0.06180887 0.11276786 -0.058179464
000250 1c 7c 40 bc f0 99 8a 3d 7e cf 61 bd 73 fe 19 3e
       -0.01174834 0.067676425 -0.05512952 0.15038471
000260 65 a0 b1 3c 74 26 0c 3e c3 a2 fa 3d 57 2f 84 bd
       0.021682927 0.13686544 0.122380756 -0.06454342
000270 23 94 35 3d f6 cb 27 3d 08 49 a4 3d 53 0d 25 3d
       0.044330727 0.040965997 0.08021742 0.04029591
000280 35 f1 69 3d 85 02 07 3e d3 41 54 3d 61 a9 17 be
       0.0571148 0.13184555 0.051820587 -0.14810707
000290 0c 67 e8 bd f0 0f 80 3d 01 ba ea 3c b0 a0 30 be
       -0.1134778 0.0625304 0.028653147 -0.17248797
0002a0 67 ea b2 3d 9f f5 33 be 76 a0 0e be ae 67 18 bd
       0.08736115 -0.17574166 -0.13928398 -0.03720825
0002b0 f2 5f 5b bd 99 ec 18 3c f6 56 37 bd 1a e2 b9 3d
       -0.053558297 0.009333753 -0.044760667 0.090763286
0002c0 d3 a2 52 3e af 2a ff 3c 74 4e 90 bd b2 f0 05 3e
       0.20569925 0.031148283 -0.07046214 0.13080099
0002d0 b7 7e 55 be d6 ef 82 3d 24 04 5c bd b8 57 2c 3c
       -0.20849119 0.06393401 -0.053714886 0.010518961
0002e0 1c 0e ba 3d 0a 98 35 3e 4b 23 5a 3c 01 fb 9f 3d
       0.090847224 0.1773378 0.013314079 0.07811547
0002f0 5d 4f 43 be 21 0e 79 3b 62 dc ce 3c 9e c6 2b 3e
       -0.19073243 0.0038002806 0.025251571 0.16774985
000300 86 4b 0b 3e cc d6 b3 3c 98 7c 3a 3d da e6 b7 3d
       0.13603029 0.02195301 0.045528978 0.08979578
000310 25 f8 e0 3b b0 00 3f 3d 19 fa fa 3d 0a d4 24 3e
       0.0068655186 0.046631515 0.122547336 0.16096511
000320 12 fb 46 3e a2 ad 0e bd 43 30 37 3e 78 58 ae bd
       0.19431713 -0.034833558 0.17889504 -0.08512968
000330 c2 89 82 be 76 2b 2a be 13 4f 62 3d d8 b5 13 be
       -0.25495726 -0.16618142 0.055251192 -0.14424837
000340 35 ec 99 bd 03 1f 8b 3d 1d 23 99 3d 6b 64 56 b8
       -0.07515756 0.067930244 0.074774005 -5.1115097e-05
000350 c7 ab 70 bd 24 52 f3 bd b5 f6 09 be 6e 77 b4 bd
       -0.05875757 -0.118809015 -0.13473018 -0.08811842
000360 27 e3 a1 bd 7e 8a 13 be bf 6a 4b bc c3 5e 31 be
       -0.07904654 -0.144083 -0.012415587 -0.17321305
000370 b3 66 25 be 03 38 fb bd d0 4f 82 3d d4 7e 08 bd
       -0.16152458 -0.12266543 0.06362879 -0.033324078
000380 99 7f 14 bb 16 d8 5b be d8 ad 9a 3e 88 7c 82 3c
       -0.0022659062 -0.21469149 0.30210757 0.015928522
000390 ad 1a fa bd 91 74 82 bc 14 5c d4 bc 47 4b 76 3d
       -0.12212119 -0.015924724 -0.025922813 0.060130384
0003a0 06 9c cb 3b a4 ac 1f 3e d2 94 0c be dd e4 b3 3c
       0.006213668 0.15593201 -0.13728645 0.021959716
0003b0 fa 82 f4 3d e6 26 ba bd 45 52 a3 ba 52 43 8b 3d
       0.11939044 -0.090894505 -0.0012460431 0.0679995
0003c0 f6 d5 91 3d 91 b9 2b bd 74 a0 4e be 8b 84 00 3e
       0.07120888 -0.041925017 -0.20178396 0.12550561
0003d0 00 d7 4e bc 15 87 59 3e 6d f6 93 3d 31 fd 47 be
       -0.012624502 0.21242936 0.07224736 -0.19530179
0003e0 14 62 c6 bc cd a6 8c bc 90 03 9c 3e 10 3f 80 bd
       -0.02421669 -0.01716938 0.30471468 -0.06262028
0003f0 6d f1 47 bc 5c 98 68 3d 52 7a c2 bd 98 02 05 be
       -0.0122035565 0.056785926 -0.09495987 -0.1298927

lstm.lstm.bias_ih_l0 f4 [256]
000000 8e 5b 42 bd a1 9e 0c bd a6 64 8f bc 30 50 88 bc
       -0.047450595 -0.034330968 -0.017504048 -0.016639799
000010 73 4d 03 be 66 e3 f2 bc ab a1 82 3d ec 69 53 be
       -0.12822513 -0.029649448 0.06378492 -0.20645875
000020 4d 58 a6 3d 0d 6e 1e 3e 05 4c a9 bd a5 1a b0 3e
       0.08122311 0.15471669 -0.08266453 0.34395328
000030 2e 7d 0c be d6 3b a1 3e 88 16 cf bd a2 c0 70 bd
       -0.13719627 0.31490964 -0.10111719 -0.05877746
000040 4c 7f a7 bb cd 83 6a 3e e9 6d 3e 3e 84 e1 89 bd
       -0.0051116105 0.2290184 0.18596615 -0.06732467
000050 dc 39 16 3d 32 3e cf bd dc 14 2c bb 18 5c 2d 3d
       0.036676273 -0.10119285 -0.002625755 0.042324156
000060 6a af 63 be 9e 21 3c be 5d 84 25 be 3d 5e bf bd
       -0.22234884 -0.18372199 -0.16163774 -0.093441464
000070 b7 ba cc 3d d1 23 30 3d c1 9f 79 be 07 e8 ef bd
       0.099965505 0.043002907 -0.24377348 -0.117141776
000080 47 1c 80 3d 11 92 79 bd ed 79 4a bd d7 9d 44 bd
       0.062553935 -0.060930315 -0.049432684 -0.04800209
000090 a8 d5 8f 3d dc 6a 80 3d d6 3e 50 3c c9 73 20 bd
       0.070231736 0.06270382 0.012710294 -0.03917292
0000a0 56 0a 35 bd 13 44 ec bd 2e e2 66 3d 7d 5d 46 3d
       -0.04419931 -0.115364216 0.056368046 0.048429
0000b0 48 c6 9e 3d bd 0c 26 3e c0 dd e2 bc 9f bc be bd
       0.07752663 0.16215797 -0.02769363 -0.0931332
0000c0 ae 93 6b bd 44 cc e8 3c 84 9d c0 3d 11 fa e4 bd
       -0.057513885 0.028417714 0.09405044 -0.11180509
0000d0 71 98 13 be 01 20 78 bd 60 a0 85 bd 34 50 51 3e
       -0.1441362 -0.060577396 -0.0652473 0.20440751
0000e0 25 87 30 be 3b af 66 3d 19 f8 86 bb 22 ac f4 3d
       -0.17239054 0.056319457 -0.004118931 0.11946894
0000f0 a0 92 00 be ba ee a0 3d 8b 02 d4 3d b2 2c 84 3d
       -0.12555933 0.078580335 0.103520475 0.064538375
000100 96 19 d6 3b 93 1c 3c bd 5a 16 df 3d fc 79 a3 bc
       0.006533812 -0.045925688 0.10892935 -0.019955628
000110 9a 53 a4 3d 1d 21 99 bb 8c 87 6d bd 97 77 cc 3c
       0.08023758 -0.004673137 -0.057990596 0.024959369
000120 74 b8 4d 3e 58 fe 43 bd ad 04 bd bd 89 de 50 bc
       0.20089895 -0.047849983 -0.092294075 -0.012748369
000130 a0 da d3 3d 8f dc 06 bd 06 b1 79 bd 79 df ae 3c
       0.10344434 -0.032925185 -0.06095984 0.021346794
000140 f9 91 ca 3d f2 8f 15 3e 66 7c 30 3d e7 e9 16 be
       0.09891123 0.14605692 0.043087386 -0.14737664
000150 2b 35 14 bb ee cd 8a 3c c4 1d a0 bd 5a 54 51 3d
       -0.0022614698 0.016943898 -0.07818177 0.051105835
000160 4b 37 d4 bd 82 2a d3 bd 6b b6 a2 3d 11 00 15 be
       -0.10362109 -0.10310842 0.0794495 -0.14550807
000170 75 42 cf bd 1c bd 9b 3d b9 16 08 3d 0f 18 74 3d
       -0.101200975 0.07604429 0.033224795 0.059593257
000180 8e b2 11 be b0 e9 d8 3c df b0 40 be 23 e8 06 3e
       -0.1422827 0.026478618 -0.18817471 0.1317449
000190 c2 07 bf 3d 77 7c ba bd f6 5d 6a 3d ea b0 8e bd
       0.093276516 -0.09105771 0.057218514 -0.069673374
0001a0 cb 4c 6f 3c 87 2f 62 3d 91 f6 6c 3d 99 4c b5 3c
       0.014605711 0.055221107 0.05785233 0.022131251
0001b0 41 27 c3 bd da 63 60 3d 76 ac ad bd 42 c2 48 3d
       -0.095289715 0.054782726 -0.0848016 0.049013384
0001c0 b9 b2 94 3d e4 45 9e bd 78 7e f5 bc 5a 63 ea 3c
       0.07260651 -0.07728174 -0.029967532 0.028611828
0001d0 aa da f1 3d 9f 58 83 3d 30 d7 21 be 73 2f f1 3d
       0.11809285 0.064133875 -0.15804744 0.11776628
0001e0 04 b1 8f bd 80 db 1d be 5d 45 78 3c 2a d1 17 3e
       -0.07016185 -0.15415764 0.015153256 0.14825884
0001f0 35 16 e1 3d 1d 77 34 bc cd 48 49 3d d9 00 ed 3d
       0.10990564 -0.011014727 0.049141694 0.11572427
000200 68 c7 a3 bd 42 5f 70 bd 58 a4 3c bd 22 24 15 3c
       -0.07997018 -0.058684595 -0.046055168 0.009102853
000210 3e f9 62 bd c5 92 3a bd 72 11 5a bd 6e 40 98 3d
       -0.055413477 -0.045550127 -0.053239293 0.07434164
000220 8f 79 34 be 73 a1 1c be 76 9d 9e bd 1b 9b 89 bc
       -0.17624496 -0.15295963 -0.07744877 -0.016797593
000230 ea 91 05 3d 43 74 f6 3d b5 87 ac bd 06 79 63 bd
       0.032609858 0.12033894 -0.084243216 -0.05553534
000240 aa af bd 3c 86 d1 5c be 0c 6f 27 3e d8 85 be 3d
       0.023155052 -0.21564302 0.16350955 0.093028724
000250 20 a5 b1 3d 49 ea cd 3c 69 7a b0 3d 4a 10 25 3e
       0.08674073 0.02513613 0.08617098 0.16119495
000260 a0 2d ba bd bd 94 59 3d 0b 4f e5 3d 72 f4 87 bd
       -0.090907335 0.053120364 0.11196717 -0.06638421
000270 b9 a8 22 bd 07 ac af 3d c0 ae b3 bd 24 0a c3 bd
       -0.039711688 0.085777335 -0.08773565 -0.095234185
000280 73 28 f1 bb 2a 38 bf 3d 9c 18 0a 3d 00 9e 8a bd
       -0.0073595583 0.09336884 0.033714876 -0.06768417
000290 16 a2 a9 bd 73 21 12 3d d9 12 6e 3d 05 ed 9c bd
       -0.082828686 0.03567643 0.058123443 -0.076623954
0002a0 b3 dd 52 bd bf 49 1c bd 2c ab 81 bc 8a 66 e8 3d
       -0.05148096 -0.038156267 -0.015828691 0.11347683
0002b0 f9 b1 e8 bd e8 ec 0d 3e 44 5b a1 3d 0a a0 14 3e
       -0.113620706 0.13859904 0.07878736 0.14514175
0002c0 38 d5 4f bd 30 2b 86 bc c2 c9 b5 bd cf 01 69 bd
       -0.05074045 -0.016378015 -0.08876373 -0.05688649
0002d0 cc 21 41 bc 1b d2 9e bd 4d 14 a9 bd e4 cc 14 3e
       -0.011787843 -0.07754918 -0.08255825 0.14531285
0002e0 80 0e 22 be 84 5a 31 bd 91 1d f9 3c a5 ff 48 3d
       -0.15825844 -0.043299213 0.030409606 0.049071927
0002f0 34 5b 1c bd 34 89 c3 3d cf 8b d3 3d 4a c2 d9 3d
       -0.038172916 0.09547654 0.10329401 0.10632761
000300 75 97 33 be 15 88 ec 3c 6d 27 e2 bc 3b b3 a0 bd
       -0.17538245 0.028873483 -0.02760669 -0.078466855
000310 26 c8 30 3e a2 5a f0 3b b9 6a 89 3d d5 b2 6c bc
       0.1726385 0.007335023 0.06709809 -0.014446934
000320 4d 76 80 bd 45 c8 e5 3d 73 6a da bd 3e e6 3b 3e
       -0.06272564 0.11219839 -0.10664835 0.18349549
000330 16 de f0 3c b0 91 2b 3e bf 2b 2c be 17 cc 1e be
       0.029402774 0.16754794 -0.16813563 -0.15507542
000340 ed 81 38 be 24 4f 0d 3e be 43 41 3d 6f 14 df 3d
       -0.18018313 0.13799721 0.047183745 0.10892569
000350 9c 16 d8 3c ac 23 5d bd 31 49 0c be c1 70 11 3d
       0.026377968 -0.053989097 -0.13699795 0.03550792
000360 cb cb 00 bd 8a 46 10 be da 84 fe bd 3b b6 43 3b
       -0.031444352 -0.14089409 -0.12427683 0.0029863256
000370 10 fd ef 3d a4 fb f9 3c 36 fe e5 bd 5e 79 92 bd
       0.1171819 0.0305155 -0.112301275 -0.07152055
000380 92 0a 5a b9 ea 3e 97 3b 5c 64 b0 3d ce a1 a9 3d
       -0.00020794038 0.0046156542 0.08612892 0.08282815
000390 b7 38 18 bd 41 69 44 3d 0f 7b fc ba 3e bb 82 3d
       -0.037163462 0.04795194 -0.0019262749 0.0638337
0003a0 2a fc 2c 3b f1 64 aa bd 12 17 ad 3c 4a be b3 bd
       0.0026395419 -0.08320034 0.021129165 -0.08776529
0003b0 b8 99 d7 bd 8a 49 16 3e a6 8c cf 3d 19 e0 1e 3c
       -0.105273664 0.1467649 0.101342484 0.009696984
0003c0 76 b4 c4 3c 1e 83 0e 3e 2f c4 a4 bb 01 d5 96 3d
       0.024011832 0.13917205 -0.0050282697 0.07364846
0003d0 1f ba e8 bd 71 9d 98 3b ef 56 ac bd 67 02 bc bc
       -0.11363625 0.0046574404 -0.08415019 -0.022950364
0003e0 2a 0c ad 3c df 9c d7 3d 00 ff 17 be 32 1c 3a 3d
       0.021123964 0.10527968 -0.14843369 0.045437045
0003f0 25 ea 45 bd 2e ba 50 3e ec 6c ea 3d 3a 5e 46 3d
       -0.048319 0.20383522 0.114465564 0.048429705

lstm.lstm.bias_hh_l0 f4 [256]
000000 c0 65 57 3d 92 8b 5a be 72 1a ac bd a8 50 15 be
       0.05258727 -0.21342304 -0.084034815 -0.14581549
000010 46 9c 1d bd c0 77 2d bb 68 8b 59 3e be fd 5d be
       -0.038479112 -0.0026469082 0.21244586 -0.21678826
000020 80 3a dc 3d 86 48 20 3d 9c ea 42 be aa 44 b1 3e
       0.107533455 0.039131664 -0.19034809 0.346227
000030 c4 08 04 bc 3e 96 c8 3d bc 19 9c bc 66 74 c4 bd
       -0.0080587305 0.097942814 -0.01905524 -0.09592514
000040 2c 3d 0a be 2a 73 17 3e d6 0a c7 3d c0 7a 28 3d
       -0.13499898 0.14790025 0.09718864 0.04113269
000050 7f f2 ef bd cb 35 97 bb d3 35 4e 3d 91 fa 85 3d
       -0.11716174 -0.004614567 0.0503443 0.065419324
000060 bb f5 c1 bd 9e 98 76 3d 7b 45 22 3d 87 37 6b bd
       -0.094706975 0.06020414 0.039617043 -0.057426002
000070 73 28 4b 3e 77 62 90 bd d9 cd e8 bc 1a 12 c1 bd
       0.19839649 -0.07050031 -0.028418468 -0.09427281
000080 da 74 74 bd 67 6e a4 3d 96 39 e7 3c e7 6b 9c 3d
       -0.05968175 0.0802887 0.028225701 0.07637768
000090 7e 92 b3 bd 49 9e b5 bd ae 5f 73 3a e4 97 19 3d
       -0.087681755 -0.08868081 0.0009283972 0.03749837
0000a0 dc a2 1c be a7 b5 0d be 07 a1 05 3d d4 a7 a7 bc
       -0.15296501 -0.13838826 0.03262427 -0.020465769
0000b0 01 54 22 be 68 9e 4f 3e 1c 52 28 3e 35 70 81 bd
       -0.15852357 0.20275271 0.16437572 -0.0632023
0000c0 40 4c 9e 3a e5 2e b2 3b 59 24 fa bd 4c 1d 00 be
       0.0012077168 0.005437719 -0.12213964 -0.12511176
0000d0 8a fb af 3d e2 9a ae 3d e4 67 a7 3d ae e7 25 3e
       0.08592899 0.08525635 0.081741124 0.1620166
0000e0 19 18 88 bd 38 2f 33 bd dc 35 d1 bd eb 07 0f bd
       -0.06645221 -0.043746203 -0.10215351 -0.03491966
0000f0 e0 de c8 bd 3a 21 c4 3d 3f 9d f3 bd 66 8e b9 bd
       -0.09808135 0.0957665 -0.11895227 -0.090603635
000100 fc d1 4f bd 79 24 8b 3c ab 28 1f bd 69 87 59 3c
       -0.050737366 0.016985165 -0.038857143 0.013276913
000110 ef 3b 0b bd 28 b3 98 3d 7b 21 f5 bc 13 8b ab 3c
       -0.033992704 0.07456046 -0.029923191 0.02094034
000120 8a b0 ed 3d 99 33 fd bc 27 50 0e 3d 33 34 05 be
       0.11605938 -0.030908393 0.034744408 -0.13008194
000130 a8 2c b3 3a 83 53 8c 3d bd eb 55 bd 9e 8c cb 3d
       0.0013669925 0.06851866 -0.05222677 0.0993893
000140 f2 8e 9e bd 92 86 14 3e 40 18 4f bd 29 77 af bd
       -0.077421084 0.1450446 -0.050560236 -0.0856765
000150 76 38 a1 3b c0 67 50 bd 99 0c b3 bc ed a0 a2 3b
       0.0049200607 -0.050880194 -0.021856593 0.0049630315
000160 e8 e2 45 bc 4c de 1f bd 2d f6 47 bc 1e f3 48 3d
       -0.012078024 -0.03903036 -0.012204689 0.04905998
000170 97 2c 92 3c 10 f2 1b 3c 40 3d d8 bd f1 2d e3 3d
       0.017843528 0.009518161 -0.105585575 0.11092747
000180 80 ef d7 bc 52 73 93 3d 77 4e d5 bd b1 9c a4 3c
       -0.02635932 0.0719973 -0.104153566 0.020094248
000190 a6 9f cf bd fc b1 16 bd 9a 78 51 bd a3 30 01 bd
       -0.101378724 -0.036790833 -0.051140405 -0.031540524
0001a0 d8 d5 bf 3d c5 ed f4 bd ba 2c 85 3d 36 2c 0d be
       0.09366959 -0.119594134 0.065026715 -0.13786396
0001b0 3b b7 00 3e f5 83 83 bd 0f 3d 98 bd 81 bc a2 3b
       0.12569897 -0.06421653 -0.07433521 0.004966319
0001c0 b9 22 e1 bd 2d 4d 10 be 4c 33 1b bb bb 2d fa bd
       -0.10992951 -0.1409194 -0.0023681698 -0.12215754
0001d0 30 de ba 3d 54 5f 37 bc 10 37 4c bd b2 64 02 3d
       0.0912441 -0.011192162 -0.0498572 0.03183431
0001e0 aa 6b 0b 3e 77 35 06 bd 56 64 58 bc bd 28 33 3e
       0.1361529 -0.03276583 -0.013207516 0.17496009
0001f0 ee 9b 58 bd 5e 4a 8b 3d 59 a2 41 3c 6b f4 11 bd
       -0.05288308 0.06801294 0.011818492 -0.035633486
000200 a0 70 72 3b 41 d8 b5 bd d2 31 c0 3d eb c5 29 3d
       0.00369934 -0.08879138 0.093845025 0.041448515
000210 84 e7 04 be ae cb 91 bd 8d 22 88 3d c3 d2 a4 3d
       -0.12978941 -0.07118927 0.06647215 0.08048012
000220 96 d0 43 be c8 d2 91 bd f8 24 96 bd 98 93 0c 3d
       -0.19122538 -0.071202815 -0.0733127 0.034320444
000230 1c 25 b7 3d 04 cf 21 3b cb 28 4f bd 6f a7 ca 3d
       0.08942625 0.0024690041 -0.050576013 0.09895217
000240 90 d0 19 3b 69 e1 8d be 9c 66 30 3e 6c 23 12 be
       0.002347026 -0.27711037 0.17226642 -0.14271325
000250 79 79 87 3d bf 72 a5 3d 4c d9 92 3c fd b0 a5 bc
       0.06614966 0.08078527 0.01792588 -0.020225996
000260 ff 7c a1 3c d5 14 0a bd f6 14 64 3d 0b f4 05 bd
       0.019712923 -0.033711273 0.055684052 -0.03270344
000270 16 3b 33 3d 87 89 9d 3c bd 37 f4 bb 0e ef ca 3d
       0.04375752 0.019230617 -0.0074529336 0.09908877
000280 fe 02 e1 bd dc 99 b7 3b 64 d9 c0 3b aa 6c bb bd
       -0.10986899 0.0056030583 0.00588529 -0.091515854
000290 d0 57 23 bd 69 f1 c2 3d 94 5c 37 bd 12 35 86 3c
       -0.039878666 0.095187016 -0.044766024 0.016382728
0002a0 8f 5f c3 bd 48 b5 9c bd bf 4c 08 3b 5f 19 d6 3d
       -0.09539711 -0.07651764 0.0020797697 0.10454058
0002b0 d4 50 59 3b 71 18 72 bd 62 5a 8a bc 43 4a 19 3e
       0.003315975 -0.05910534 -0.016888801 0.14969735
0002c0 db 3e 0e 3e 2f c8 07 bd 3b 1c 5c 3c 70 e4 53 3c
       0.13891165 -0.033149894 0.013434465 0.012932882
0002d0 10 f4 ab bd d8 3d c0 bd 03 ab c6 3d 34 9e f5 3d
       -0.083961606 -0.09386796 0.09700587 0.119930655
0002e0 6b fb ae 3c d8 97 98 3d fe 14 0e bb 45 a3 37 bd
       0.02136012 0.07450837 -0.0021679993 -0.04483344
0002f0 12 d7 b6 3d d5 48 5d 3c 18 cb 13 3d a9 99 e3 3b
       0.0892774 0.013506134 0.036082357 0.006945808
000300 93 51 9e bd 5d cb 10 3d d7 d6 0b 3d 6e 15 4e 3c
       -0.07730403 0.035350192 0.034140434 0.012578351
000310 29 f4 2b 3e 05 a5 5d be c4 f1 1b 3e eb 50 e0 bd
       0.16792358 -0.21644981 0.15228945 -0.10952934
000320 f4 b1 ce bd fd 8f cb bc 9a cf d3 3c 58 33 8d 3e
       -0.100925356 -0.024848932 0.025855828 0.27578235
000330 40 30 48 3d bd 73 54 3e 58 c0 84 bd 7f 28 86 bd
       0.04887414 0.20747276 -0.06481999 -0.06550693
000340 9e c9 67 3c d2 2f e9 3d f9 26 cc 3d e7 75 e3 bc
       0.01414719 0.11386074 0.09968371 -0.027766181
000350 6e 4f 4d 3c b4 74 4e 3c ec 87 33 bd 8b 0f ff 3d
       0.012531145 0.012601066 -0.043830797 0.124541365
000360 8d 23 03 be 21 62 9d bd 4b ef 03 3d 85 f7 1b 3e
       -0.1280653 -0.07684732 0.03221063 0.1523114
000370 85 5f 72 bd eb c4 20 3e ec 47 82 be 5b 2a 21 bd
       -0.059173126 0.15700118 -0.25445497 -0.039347034
000380 c4 02 86 3d 91 96 be bd 74 62 b4 3a 19 64 13 bd
       0.06543496 -0.09306062 0.0013762251 -0.035984132
000390 0b 5d 23 3e f7 10 f2 bc bc a2 6d bd 84 9d f9 bd
       0.15953462 -0.029549105 -0.058016524 -0.12188247
0003a0 7c df 81 bc 0f 7b 09 bc ca 2a 07 3d d9 bc 02 be
       -0.015853636 -0.008391156 0.03299979 -0.12767352
0003b0 4b ea 3f be cb 3e f7 3d 69 27 f5 3d e7 39 7a bc
       -0.1874172 0.12072524 0.119704075 -0.015272594
0003c0 bd 06 a6 bd d0 25 8c bb 73 46 96 3d 97 52 23 bd
       -0.08106754 -0.0042769685 0.07337656 -0.039873686
0003d0 76 44 ac 3c e7 e6 f1 bd d5 c7 30 be 34 cb f4 bd
       0.021028738 -0.11811619 -0.1726373 -0.119528204
0003e0 3c 88 4e 3b 68 99 cc 3d da 46 42 be 05 81 a1 3d
       0.0031514307 0.099901974 -0.1897234 0.07885937
0003f0 4f 08 1c 3e 5e c6 8b 3d 04 5f 23 3d 1a f6 03 bd
       0.15237544 0.06824945 0.039885536 -0.032217123

fc.weight f4 [1, 64]
000000 92 b6 ba 3e c1 14 68 3e 5d d9 ac 3d 73 93 3b be
       0.36467415 0.22664167 0.08439896 -0.18317966
000010 fc 39 89 3e 65 91 8f be 0a 16 5c 3e ce 66 96 3e
       0.2680205 -0.28040615 0.21492782 0.2937531
000020 44 61 4f 3d c8 35 74 bd 04 8d cb 3e a8 c8 25 3d
       0.05062987 -0.059621602 0.39756024 0.040474564
000030 aa 69 97 be fa a7 c1 be e6 d0 ab 3e 69 42 8e 3e
       -0.29572803 -0.37823468 0.33557814 0.27785042
000040 4c c4 9a be 86 18 15 be 38 b7 67 be 91 46 a2 3e
       -0.30227888 -0.14560136 -0.22628486 0.31694463
000050 c4 38 8f 3e db a1 a2 be 97 e0 5c 3e 36 60 f5 be
       0.27972996 -0.3176411 0.21570049 -0.47924966
000060 24 ea df be 41 67 84 3e 31 ee 51 3e c6 c4 c2 be
       -0.43733323 0.25860026 0.20501019 -0.3804075
000070 03 eb be 3e e6 b0 6f be c2 b0 aa 3e 64 32 99 bd
       0.37288675 -0.23407325 0.3333798 -0.074803144
000080 6b c8 5d 3e e5 62 8c be 23 04 ee bd 59 b0 b2 bd
       0.21658485 -0.274192 -0.11621883 -0.08725042
000090 e5 f8 32 bc 4d 18 56 3d 41 32 6c be fa c0 35 3e
       -0.010923599 0.05226927 -0.23066045 0.17749396
0000a0 ab 06 b6 be 27 9d 8a 3e 68 8d 5f be 49 14 8b be
       -0.35551962 0.27073023 -0.21831286 -0.27163914
0000b0 51 43 68 be d4 fb 1a be 77 7f 19 3e a1 fb 88 be
       -0.22681929 -0.15135127 0.1499003 -0.26754478
0000c0 13 41 2e be d5 a1 5e 3e c2 a7 1c be 5e 34 75 3e
       -0.17017011 0.21741422 -0.1529837 0.23945758
0000d0 f2 3c 39 be f3 47 91 bd e2 8c 7a 3e 50 44 d3 bd
       -0.18089655 -0.07093801 0.24467805 -0.10315764
0000e0 83 de 99 3e 51 12 a8 be 98 fa ec 3e a0 85 04 3e
       0.30052575 -0.32826474 0.46284938 0.12941599
0000f0 10 64 64 3e 7d f4 62 bd 7d 61 9c bd 77 c9 9d be
       0.22303796 -0.055408943 -0.07635782 -0.30817768
