best_model.pt (torch, 106743 bytes, 7 tensors)

cnn.conv.weight f4 [32, 6, 3]
0	0x3e2f0886	0.17093095
1	0x3e38c02b	0.18042056
2	0x3e5357be	0.2063894
3	0xbdc6f0f6	-0.097139284
4	0x3e252648	0.16127884
5	0xbd4933c6	-0.04912164
6	0xbe15538e	-0.14582655
7	0x3e5fdb69	0.21861042
8	0xbd77bb13	-0.060481142
9	0x3df4e13f	0.11957025
10	0xbd9ef9b1	-0.077624686
11	0x3c9dd585	0.019266853
12	0xbee47403	-0.4461976
13	0x3d7c8beb	0.061656874
14	0xbede770f	-0.4345021
15	0xbeba6eac	-0.3641256
16	0xbe67c091	-0.22632052
17	0xbdd49fc2	-0.10382034
18	0xbc891f7f	-0.016738651
19	0xbd99a0f6	-0.07501404
20	0x3e062c66	0.13102874
21	0xbd5736bf	-0.052542444
22	0xbe5f2f90	-0.21795487
23	0xbe6fcbdc	-0.2341761
24	0x3ceb8591	0.028750213
25	0xbdf14774	-0.11781207
26	0xbe07b2b3	-0.13251762
27	0x3dd85b28	0.10564262
28	0x3e386620	0.18007708
29	0x3d681266	0.05665817
30	0x3dff56d4	0.12467733
31	0x3be36107	0.006939057
32	0x3d9261da	0.0714757
33	0x3e3368c9	0.17520441
34	0x3e16584c	0.1468212
35	0xbdf205ca	-0.118175104
36	0xbc1e8b82	-0.009676816
37	0x3de05b17	0.10954874
38	0x3e8995a6	0.26871985
39	0x3e458fef	0.19293188
40	0x3e76fdb6	0.2412022
41	0x3ed227bc	0.4104594
42	0x3e8e3994	0.27778304
43	0xbc0739f8	-0.008253567
44	0x3eef42d9	0.46730688
45	0x3db0a434	0.08625069
46	0xbdafebb6	-0.0858988
47	0x3d930534	0.07178727
48	0xbbe178ff	-0.006880879
49	0x3dfe3436	0.12412302
50	0x3cb5cd99	0.022192763
51	0xbe182073	-0.14856128
52	0x3e2ce62d	0.1688468
53	0xbe58bc01	-0.21165468
54	0x3e6e1830	0.23251414
55	0x3e044083	0.12915234
56	0x3e8888b0	0.26666784
57	0xbd875154	-0.06607309
58	0x3ec7f805	0.3905641
59	0x3e58af45	0.2116061
60	0x3ebf5a5d	0.3737363
61	0x3ea752de	0.3268041
62	0x3ec13562	0.3773604
63	0x3cbcd310	0.023049861
64	0x3d0edffe	0.034881584
65	0xbe09a021	-0.1343999
66	0x3d5a68ad	0.053322483
67	0xbe21a073	-0.15783863
68	0xbe7933f9	-0.24336232
69	0x3d36664c	0.04453115
70	0xbe72003f	-0.23632906
71	0x3d83de53	0.06438889
72	0x3e910a44	0.28328145
73	0x3e93ec61	0.2889128
74	0x3dee151c	0.1162512
75	0xbe1af4f2	-0.15132502
76	0x3e635335	0.2219971
77	0x3e90ad85	0.28257385
78	0x3eaef6f8	0.34172797
79	0x3e3c6298	0.18396986
80	0x3e047596	0.1293548
81	0x3e1cc2ed	0.15308733
82	0xbdabc808	-0.08387762
83	0x3e2ea2c9	0.17054285
84	0x3d89d517	0.06730097
85	0xbdf6e44d	-0.12055264
86	0x3d29617a	0.041352727
87	0x3db2b4da	0.08725901
88	0x3cdcf8c1	0.026974084
89	0x3cbe62b3	0.023240423
90	0x3e8a8511	0.27054647
91	0x3e04ea3e	0.12979981
92	0xbdc23c92	-0.09484209
93	0x3e51b7f8	0.20480335
94	0x3d78dac2	0.0607555
95	0x3e124427	0.1428381
96	0xbdd2838a	-0.10278995
97	0xbe087163	-0.13324504
98	0xbe00450e	-0.12526342
99	0xbe2c962a	-0.16854158
100	0xbe76590b	-0.24057405
101	0xbe81a562	-0.2532149
102	0x3c8e2f3a	0.017356504
103	0xbe6a9f31	-0.22912289
104	0xbea682df	-0.32521722
105	0xbca93c4c	-0.020658635
106	0xbe00c9f9	-0.12577046
107	0x3d83e14d	0.06439457
108	0xbd5c1e44	-0.0537398
109	0x3ccf726b	0.025323113
110	0xbd06122f	-0.032732185
111	0x3dca7ba7	0.09886866
112	0xbd91ef20	-0.071256876
113	0x3e3da42f	0.18519662
114	0x3e93b5ff	0.2884979
115	0xbd934a34	-0.071918875
116	0xbe90c6d9	-0.2827671
117	0x3e6c33b0	0.23066592
118	0x3e2acdc1	0.16680051
119	0x3d89f8e4	0.06736925
120	0xbe3ea604	-0.18618017
121	0x3e173615	0.14766724
122	0x3c504b1f	0.012713223
123	0x3d32a768	0.043616682
124	0xbe21c40d	-0.15797444
125	0xbe39e9d9	-0.18155612
126	0xbccc43f3	-0.024934744
127	0x3df0d266	0.1175888
128	0xb98f74f4	-0.00027362222
129	0xbde44f7a	-0.111479715
130	0x3e7439e0	0.23850203
131	0x3ea23b97	0.31686088
132	0xbdae362b	-0.085064255
133	0xbe186ede	-0.14886042
134	0x3d81be0b	0.06335076
135	0x3dc618ec	0.09672722
136	0xbe483270	-0.1955049
137	0x3dbdc3a5	0.09265832
138	0x3d16678a	0.036719836
139	0x3e4cc553	0.19997148
140	0xbec4fc2b	-0.3847364
141	0x3dd56d16	0.10421197
142	0xbd9e9b39	-0.0774445
143	0x3cbcc069	0.023040967
144	0xbdd58aa0	-0.10426831
145	0x3e9d5b6f	0.3073382
146	0x3e340912	0.17581585
147	0xbc3a2657	-0.01136168
148	0x3e7a8edf	0.24468563
149	0x3edb56e5	0.42839733
150	0x3e973113	0.29529628
151	0x3dd7cb24	0.10536793
152	0x3db60b38	0.088888586
153	0xbe09b2fe	-0.13447186
154	0x3dbc6aec	0.09200081
155	0xbe29be76	-0.16576561
156	0xbc15bef7	-0.009139768
157	0x3e1d22d5	0.15345319
158	0xbe3f8d10	-0.18706155
159	0x3d12ccb8	0.035839766
160	0x3dd4ad32	0.10384597
161	0x3d3b6b30	0.04575652
162	0x3de0a068	0.10968095
163	0x3eb331db	0.34998974
164	0x3ba7fea5	0.0051267915
165	0x3df6fcec	0.1205996
166	0x3eb04202	0.3442536
167	0x3e946c03	0.28988656
168	0xbe232983	-0.15933804
169	0x3e72339c	0.236525
170	0xbd43e6e2	-0.04782761
171	0x3e0263b6	0.12733349
172	0xbdbbee3b	-0.09176298
173	0xbe8d74fb	-0.27628312
174	0xbd4aaeef	-0.049483236
175	0xbd0c2a97	-0.034220304
176	0xbdce64e6	-0.100778386
177	0xbe4e21e8	-0.20130122
178	0x3c8108bb	0.015751233
179	0x3c5a74b0	0.0133334845
180	0x3e123405	0.14277656
181	0x3dfa3f73	0.12219133
182	0x3e16bce2	0.1472049
183	0x3e9e3770	0.3090167
184	0x3dc4b083	0.096039794
185	0x3e9de35b	0.3083752
186	0x3e40ced5	0.188289
187	0x3e84cbb7	0.25936672
188	0x3ea5f280	0.32411575
189	0xbe347e34	-0.17626268
190	0x3d6a31ec	0.057176515
191	0xbe274f07	-0.1633874
192	0x3de480bf	0.11157369
193	0x3cd90a3d	0.02649414
194	0x3bd86ff5	0.006605143
195	0xbb560efa	-0.0032662735
196	0xbdd80fe2	-0.105499044
197	0x3c5164fb	0.012780423
198	0xbd570a81	-0.05250025
199	0x3e752301	0.23939134
200	0xbe85e7c8	-0.26153398
201	0x3e78150f	0.24226783
202	0x3ea4b1b4	0.32166827
203	0xbe884239	-0.26613024
204	0xbde47e4e	-0.11156903
205	0xbdd2eed7	-0.10299461
206	0xbd6f817d	-0.0584731
207	0x3d4992d5	0.049212296
208	0xbe7c26df	-0.24624203
209	0x3e2cd5dc	0.16878456
210	0x3d0490c2	0.032364614
211	0xbe82125d	-0.25404635
212	0x3ddd3b30	0.10802305
213	0xbebcd8a3	-0.3688403
214	0x3dcc7b2c	0.09984431
215	0xbe3f473e	-0.1867952
216	0x3e1d872a	0.15383592
217	0x3e91f97c	0.28510654
218	0x3ec99813	0.39373836
219	0x3e9d5041	0.3072529
220	0x3e93d114	0.2887045
221	0x3ea56d9f	0.32310197
222	0x3e9690f1	0.29407457
223	0x3d97d400	0.07413483
224	0x3e897cb7	0.26852962
225	0xbdd29b10	-0.10283482
226	0xbce50778	-0.027957663
227	0x3d1ae310	0.0378142
228	0xbe4d1415	-0.20027192
229	0x3d030a2b	0.03199212
230	0x3cb38875	0.021915654
231	0x3d3a8742	0.04553915
232	0x3d0e5500	0.03474903
233	0x3c1b14e6	0.009465432
234	0xbdfb54c4	-0.12272027
235	0x3d80c3aa	0.0628732
236	0x3e3bb742	0.18331626
237	0x3c930854	0.017948307
238	0x3c472f1e	0.01215723
239	0xbe8bfdb1	-0.2734199
240	0xbe256e54	-0.16155368
241	0xbc7d5862	-0.015462967
242	0xbd9397f4	-0.07206717
243	0xbe040895	-0.12893899
244	0xbe8f2131	-0.2795501
245	0xbe8bbea3	-0.27293882
246	0x3dbc8306	0.09204678
247	0xbe5ddb7b	-0.21665756
248	0x3da69c36	0.081352636
249	0xbe28d642	-0.16487983
250	0xbdadf59d	-0.08494113
251	0x3da05c93	0.07830157
252	0x3d0af9db	0.033929687
253	0x3e3db226	0.1852499
254	0x3e93e3b5	0.28884664
255	0xb90d32ec	-0.00013465778

cnn.conv.bias f4 [32]
0	0x3eea420e	0.4575352
1	0xbe82c039	-0.2553728
2	0xbd016040	-0.03158593
3	0xbd994a94	-0.07484928
4	0xbe1cd9a7	-0.15317403
5	0x3e4ca500	0.19984818
6	0xbe2b2093	-0.16711645
7	0x3e883fae	0.26611084
8	0xbdcaab1e	-0.09895919
9	0xbdba070c	-0.09083375
10	0x3cd72420	0.026262343
11	0x3e1f3ded	0.15550967
12	0x3e5d5047	0.21612655
13	0x3db662f3	0.08905592
14	0xbe57605a	-0.21032849
15	0x3ec33e5d	0.38133517
16	0xbe0502e8	-0.1298939
17	0x3e9ac645	0.30229393
18	0x3eaca657	0.33720657
19	0xbe4e14d1	-0.20125128
20	0x3d169adf	0.03676879
21	0xbd3e2ed9	-0.046431396
22	0xbe17d4cb	-0.14827268
23	0xbcd90369	-0.026490884
24	0x3eb50646	0.3535635
25	0x3eb6ac29	0.35678223
26	0x3e55152f	0.20808862
27	0x3e2e411e	0.17017028
28	0xbe126f24	-0.1430021
29	0xbdc51032	-0.0962223
30	0x3ee264a3	0.44217405
31	0x3eb744c1	0.35794643

lstm.lstm.weight_ih_l0 f4 [256, 32]
0	0x3cd0d026	0.025489878
1	0xbdd9a741	-0.10627604
2	0x3dc2deeb	0.095151745
3	0x3e603126	0.21893749
4	0xbc5b4b2e	-0.013384623
5	0x3e2af1b3	0.16693763
6	0xbc164f8d	-0.00917424
7	0x3d0ebc97	0.034847822
8	0x3e5fab9a	0.21842805
9	0x3e4cd0db	0.20001547
10	0x3e8d6930	0.27619314
11	0x3e569449	0.20955004
12	0x3e6f72b2	0.23383597
13	0x3e256c92	0.16154698
14	0xbdd3d3a7	-0.10343104
15	0x3e7dcca8	0.24785101
16	0x3e2f4c72	0.17119005
17	0x3d2fa81e	0.04288494
18	0x3caa09ac	0.020756565
19	0x3de7c679	0.113171525
20	0x3da9f6fb	0.08299061
21	0x3eeb4e43	0.45958146
22	0x3e409c3d	0.188096
23	0x3e1bcd15	0.15214951
24	0x3d7e4dc0	0.062085867
25	0x3d5365a4	0.051610604
26	0x3d59f43c	0.053211436
27	0x3e4181cc	0.1889717
28	0x3ccb95cd	0.024851704
29	0x3dd2abfe	0.10286711
30	0x3c47487e	0.01216328
31	0x3bda04df	0.0066534127
32	0xbd3afbad	-0.045650173
33	0x3de342be	0.110967144
34	0x3df9d56b	0.12198909
35	0x3ea3cdba	0.31992894
36	0x3d8cc307	0.06873136
37	0x3e317c32	0.17332533
38	0xbe19d680	-0.15023232
39	0x3d732011	0.059356753
40	0xbbde653e	-0.0067869714
41	0x3e2924dd	0.16517968
42	0x3dee45c3	0.116344
43	0x3c1aef26	0.0094564315
44	0x3e1105f6	0.1416243
45	0x3e152dc7	0.14568244
46	0xbcfba10d	-0.030716443
47	0x3e6b0964	0.22952801
48	0x3dab175b	0.08354064
49	0x3da6eb4d	0.08150349
50	0x3d42f413	0.04759605
51	0x3e436924	0.19083077
52	0x3e395e93	0.18102483
53	0x3de2117e	0.110384926
54	0x3d9fa1e8	0.07794553
55	0xbb683828	-0.0035433862
56	0x3e1a22ba	0.1505231
57	0x3e4a2997	0.19742428
58	0x3defd21e	0.117099985
59	0x3d4874ad	0.048939396
60	0xbd939e8f	-0.07207977
61	0x3db6b7ca	0.08921774
62	0x3d591d73	0.0530066
63	0x3de4ebb5	0.1117777
64	0x3dde218d	0.10846243
65	0x3a8fcbc8	0.0010970766
66	0x3c237ec4	0.009978954
67	0x3e760d50	0.24028516
68	0x3d9e7081	0.07736302
69	0xbd30fd8c	-0.04321055
70	0xbdff7294	-0.12473026
71	0xbd4c6d4a	-0.049908914
72	0x3d5f8354	0.054568604
73	0x3e190c01	0.14945985
74	0x3e4fe768	0.20303118
75	0xbe21eb04	-0.15812308
76	0x3ddb18e7	0.10698109
77	0x3c66bdad	0.014083308
78	0x3cc9625f	0.02458304
79	0x3e21a86a	0.15786901
80	0x3e05f6f1	0.13082482
81	0x3d495d6e	0.049161367
82	0x3cc5f51f	0.024164734
83	0xbde4a067	-0.11163407
84	0x3ddb40a4	0.107056886
85	0x3e965a32	0.2936569
86	0xbb935043	-0.004495652
87	0xbd690b50	-0.056895554
88	0x3de73d44	0.11290982
89	0x3e853e1b	0.26023945
90	0x3dff8b74	0.124777704
91	0x3e09df41	0.13464071
92	0xbdef3d3d	-0.11681602
93	0xbe2b63fa	-0.16737357
94	0x3e335dbe	0.17516229
95	0x3eb6d8ad	0.35712186
96	0xbc706acf	-0.014673903
97	0xbe451136	-0.19244847
98	0x3dc1cbb8	0.094626844
99	0x3da79169	0.08182032
100	0xbd0d7df6	-0.034543954
101	0x3de0991b	0.109667026
102	0xbdcaa16f	-0.09894072
103	0xbdbd578b	-0.09245213
104	0x3cdb0957	0.026737852
105	0xbd4b65ff	-0.049657818
106	0x3e43dbb5	0.1912678
107	0xbd41ef10	-0.04734713
108	0x3d3a6b87	0.045512702
109	0x3d5bebfe	0.053691857
110	0x3d91b5a1	0.07114721
111	0x3bc333c8	0.0059571005
112	0x3d777454	0.060413674
113	0x3d217bdc	0.039424762
114	0xbc5d3b04	-0.01350284
115	0xbe4cd3fe	-0.20002744
116	0x3e191cd8	0.1495241
117	0x3e5f8b3f	0.21830462
118	0x3d75ed07	0.0600405
119	0xbcdfe5e1	-0.027331294
120	0x3e8cedd5	0.275252
121	0x3d591433	0.05299778
122	0x3dee1e8f	0.11626922
123	0x3e254362	0.16138986
124	0xbd9ed1bb	-0.07754847
125	0xbe979c27	-0.29611322
126	0xbd4f5a39	-0.050623152
127	0x3e5ffecb	0.2187454
128	0x3dc54fff	0.09634399
129	0xbe07b3b2	-0.13252142
130	0xbd4d0193	-0.05005033
131	0xbb16655e	-0.0022948603
132	0x3e0adc51	0.13560607
133	0x3db844b5	0.0899748
134	0xbdb6ce0a	-0.089260176
135	0x3e45966d	0.19295664
136	0xbda5e7ef	-0.081008784
137	0xbd7a4505	-0.06110098
138	0x3e2d7f3b	0.16943066
139	0xbe3c7f08	-0.18407834
140	0x3d9ec509	0.07752425
141	0xbe8cb13a	-0.27478963
142	0x3da4f2dd	0.08054135
143	0x3e50813c	0.20361799
144	0x3e3a88d2	0.18216255
145	0x3d43a667	0.047766116
146	0x3e5bcc89	0.21464743
147	0xbd96e142	-0.07367183
148	0x3df396ac	0.11893973
149	0x3e467d0b	0.19383638
150	0x3e4bb580	0.19893456
151	0x3c05d521	0.00816849
152	0x3ee7d8eb	0.45282683
153	0x3d92a28c	0.071599096
154	0x3e1c555f	0.15266941
155	0x3ebf5459	0.3736904
156	0xbd06781d	-0.032829393
157	0xbe7d5bf1	-0.24742104
158	0x3e288c87	0.16459857
159	0x3e87b68f	0.2650647
160	0x3da6f8e0	0.08152938
161	0xbe5bdd9a	-0.21471253
162	0x3e08e5c5	0.133689
163	0x3df8521c	0.12125036
164	0x3d3270c8	0.043564588
165	0x3dbf6d5a	0.09347029
166	0xbd9fcb36	-0.07802431
167	0x3d719f1c	0.05898963
168	0xbd1855d7	-0.03719124
169	0xbc6dc7c4	-0.01451296
170	0x3e201786	0.15633973
171	0xbc85fc9d	-0.016355807
172	0x3e1fbcac	0.15599316
173	0x3e1828eb	0.14859359
174	0xbe06b810	-0.13156152
175	0x3c1baaf8	0.009501211
176	0x3dfc0321	0.12305284
177	0x3c0d6ebc	0.008632358
178	0xbd100197	-0.035157766
179	0xbc85866c	-0.016299449
180	0x3d99cc41	0.075096615
181	0x3e88ab75	0.2669331
182	0x3e4ab903	0.19797139
183	0x3e4f3b90	0.20237565
184	0x3df87af4	0.121328264
185	0xbd8bc39b	-0.06824418
186	0x3b992a92	0.004674264
187	0x3e4246c1	0.18972303
188	0xbbbf4010	-0.0058364943
189	0x3e293502	0.16524127
190	0x3d9d20b4	0.07672253
191	0x3de1c83c	0.1102452
192	0xbcb53ca1	-0.022123637
193	0x3bfec3e1	0.0077748154
194	0x3e408d96	0.18804011
195	0x3d0c3817	0.03423318
196	0x3ddca0fc	0.10772893
197	0xbdabf242	-0.083958164
198	0xbbb8d42c	-0.0056405272
199	0xbda0ef67	-0.078581624
200	0x3df0cfd4	0.1175839
201	0xbb116481	-0.002218515
202	0xbcf84f37	-0.03031121
203	0xbe1f9d2b	-0.15587299
204	0x3d29d440	0.041462183
205	0xbd2c8a73	-0.042124223
206	0xbd1861ea	-0.037202753
207	0xbd58e7e8	-0.052955538
208	0x3e15045f	0.14552449
209	0x3e170a0b	0.14749925
210	0x3e3ba5bc	0.18324941
211	0x3c6b2d63	0.014354083
212	0x3d66285b	0.05619083
213	0x3d51d2f5	0.051226575
214	0x3e0af6ad	0.13570662
215	0x3de422dd	0.11139462
216	0x3e29332c	0.16523427
217	0xbd9ef3dc	-0.07761356
218	0x3df51cca	0.11968382
219	0x3e237caa	0.15965524
220	0xbceb7f91	-0.028747352
221	0xbe0b00b4	-0.13574487
222	0x3cb5c22c	0.022187315
223	0x3e04b00b	0.1295778
224	0x3e0a6395	0.1351455
225	0xbd142cf3	-0.03617568
226	0x3e0efda2	0.1396394
227	0x3c59eeda	0.013301576
228	0xbd201a91	-0.039087836
229	0xbd0a6ed2	-0.033797093
230	0x3d067cdf	0.03283393
231	0xbcaec733	-0.02133522
232	0x3e07753d	0.13228317
233	0x3e29874b	0.16555516
234	0x3e5796a4	0.21053559
235	0xbd4dbe47	-0.05023029
236	0xbaae04ec	-0.0013276613
237	0xbc88331d	-0.016625935
238	0x3d9978e4	0.07493761
239	0x3c428a97	0.011873863
240	0xbd8ad36a	-0.06778605
241	0xbc891a03	-0.016736036
242	0x3e21fd44	0.1581927
243	0x3e12a6f4	0.143215
244	0xbd0cf0a6	-0.034409188
245	0x3dba9b37	0.09111636
246	0x3da87e38	0.08227199
247	0x3d49c636	0.049261294
248	0xbd1d88b5	-0.038460452
249	0xbd75d77e	-0.060019962
250	0xbd02becc	-0.03192024
251	0xbd0c3920	-0.034234166
252	0x3d860b1c	0.06545088
253	0xbd6c4c32	-0.057689853
254	0x3c8da6ce	0.017291453
255	0x3d847511	0.06467641

lstm.lstm.weight_hh_l0 f4 [256, 64]
0	0x3d8a2f72	0.06747331
1	0xbc8cc848	-0.017185345
2	0x3dd9ff48	0.10644394
3	0x3e90345d	0.2816495
4	0xbdcd06a0	-0.10011029
5	0x3d163eee	0.03668111
6	0xbe0eb1aa	-0.13934961
7	0xbd71b719	-0.059012506
8	0x3e2ab633	0.16671066
9	0xbe152785	-0.14565857
10	0x3d8df163	0.069308065
11	0x3e154bf1	0.1457975
12	0xbd92df79	-0.0717153
13	0xbb1095cd	-0.0022061944
14	0x3e4765f4	0.19472486
15	0xbdfe7c7f	-0.124260895
16	0xbdef23e3	-0.11676767
17	0xbe203371	-0.15644623
18	0x3e0797e0	0.1324153
19	0x3e20e21d	0.15711255
20	0xbe314436	-0.17311177
21	0xbb34bfc8	-0.002758013
22	0x3e45af9e	0.19305274
23	0x3e2e8747	0.17043792
24	0x3e79891f	0.24368714
25	0x3e4d415c	0.20044464
26	0xbe1d2499	-0.15345992
27	0xbd16577d	-0.03670453
28	0xbe0b2b9f	-0.13590859
29	0xbdea89af	-0.11452042
30	0x3e6780a2	0.22607663
31	0xbdf6c381	-0.12049008
32	0xbcd72551	-0.026262911
33	0xbe0547fb	-0.1301574
34	0x3e227b36	0.15867314
35	0xbd194953	-0.037423443
36	0x3e2f7597	0.171347
37	0x3da6751a	0.08127804
38	0x3dc58a9c	0.09645578
39	0x3e57427d	0.21021457
40	0xbd72a2ab	-0.059237164
41	0xbe14a453	-0.1451581
42	0xbe0bd787	-0.13656436
43	0xbe46bbff	-0.19407652
44	0xbd03c12c	-0.032166645
45	0x3e61298d	0.21988507
46	0xbd85328d	-0.065037824
47	0xbe043e02	-0.12914279
48	0xbb095832	-0.002095711
49	0x3d537b19	0.051631067
50	0xbdc201f1	-0.094730265
51	0x3dbb81a6	0.09155588
52	0xbe562370	-0.20911956
53	0xbde17ff1	-0.11010731
54	0xbc6391ac	-0.013889711
55	0x3e1574e3	0.1459537
56	0x3e422d00	0.18962479
57	0x3e7559de	0.23960063
58	0xbea6ba26	-0.32563895
59	0x3e456c96	0.19279703
60	0xbd7120d5	-0.0588692
61	0x3dd321d7	0.10309189
62	0xbdebe2ad	-0.11517844
63	0x39ce470d	0.0003934432
64	0x3e2ea312	0.17054394
65	0xbe396076	-0.18103203
66	0x3e802cd3	0.25034198
67	0x3eb33614	0.35002196
68	0xbda218e0	-0.07914901
69	0x3c4addfe	0.012382029
70	0xbe938cf5	-0.2881848
71	0x3e0a5946	0.13510618
72	0x3e14a3ba	0.14515582
73	0x3b9029dd	0.0043995217
74	0xbca53b10	-0.020169765
75	0x3df0eed4	0.11764303
76	0xbe29b718	-0.16573751
77	0x3d87a3fa	0.06623073
78	0x3d92b1a6	0.0716279
79	0xbe89b9cd	-0.26899567
80	0xbe4a92cc	-0.19782561
81	0xbe44f414	-0.19233733
82	0x3d6ad167	0.057328608
83	0xbdf0f220	-0.11764932
84	0xbe904aad	-0.28181973
85	0xbe5fc487	-0.21852313
86	0x3e946bfa	0.2898863
87	0x3e730a81	0.23734476
88	0x3e95a094	0.29224074
89	0x3e374bfb	0.17900078
90	0xbb9fc1e6	-0.0048754094
91	0xbe9269a3	-0.2859622
92	0x3cd6419e	0.026154336
93	0xbe5e1dfa	-0.21691123
94	0x3d34fc28	0.044185787
95	0xbda53795	-0.08067242
96	0xbe85b698	-0.2611587
97	0xbe40e7f5	-0.18838485
98	0x3d9c54cc	0.07633361
99	0xbe9405eb	-0.28910765
100	0x3ccd97c2	0.025096778
101	0xbc8cb4b3	-0.017176008
102	0x3d152ccf	0.036419686
103	0x3d521b54	0.051295593
104	0x3e1a0679	0.15041532
105	0xbe7c5497	-0.24641643
106	0xbe84a2b5	-0.25905386
107	0xbe8c10de	-0.2735662
108	0x3d1a100e	0.037612967
109	0x3e099f44	0.13439661
110	0xbe4190dd	-0.18902917
111	0xbe20a204	-0.15686804
112	0xbe99c2a0	-0.300313
113	0x3eac9299	0.33705595
114	0xbe6eabf3	-0.23307781
115	0x3d82eac5	0.06392435
116	0xbe822228	-0.25416684
117	0xbe1498b5	-0.14511378
118	0x3cb8b8c1	0.022549035
119	0x3e8f9da9	0.28049973
120	0x3e2ac3c9	0.16676249
121	0x3dc0787d	0.09397981
122	0xbe4596d4	-0.19295818
123	0x3e1d4c92	0.1536124
124	0xbe3cf2e8	-0.18452036
125	0x3da90944	0.082537204
126	0xbe95470a	-0.2915576
127	0xbd44abb3	-0.048015308
128	0xbbf7e4e5	-0.007565128
129	0xbdefc589	-0.11707599
130	0x3ba13be4	0.0049204696
131	0x3c969bf2	0.018384907
132	0x3c06e217	0.008232615
133	0x3df47098	0.11935538
134	0x3dfb0dc7	0.12258487
135	0xbc54dfea	-0.012992838
136	0xbd012173	-0.03152604
137	0x3d6d5da6	0.05795064
138	0xbe15b78f	-0.14620803
139	0xbcf1b2ab	-0.02950414
140	0x3e06d2b3	0.13166313
141	0xbded815f	-0.11596941
142	0x3c352022	0.011055024
143	0xbe1e1ebb	-0.1544141
144	0xbd9191f8	-0.071079195
145	0x3df4a389	0.11945254
146	0x3c3fadb2	0.011699127
147	0x3de035c5	0.10947756
148	0xbdd01096	-0.101594135
149	0xbd68a062	-0.056793578
150	0x3e03e552	0.12880448
151	0x3e096973	0.13419132
152	0xbd38ae36	-0.045088015
153	0x3e19891e	0.14993712
154	0x3d4a4d6f	0.049390253
155	0xbe101cd2	-0.14073494
156	0xb9ae0bdc	-0.00033196702
157	0x3e0e3cd2	0.13890389
158	0xbd1040d3	-0.03521807
159	0x3d5d8aa2	0.05408729
160	0x3db7c874	0.0897378
161	0xbda178ff	-0.07884406
162	0x3dcacdf0	0.09902561
163	0xbd339606	-0.043844245
164	0x3e2b795a	0.1674551
165	0xbdc020f1	-0.09381283
166	0xbd86341c	-0.06552908
167	0x3b5e2861	0.003389858
168	0xbdf74b24	-0.12074879
169	0xbd15bd77	-0.03655764
170	0x3d6f6bcd	0.058452416
171	0x3c748600	0.014924526
172	0xbd3588ad	-0.044319797
173	0x3cb2bd7b	0.021818867
174	0xbe024f27	-0.12725507
175	0x3cd1a399	0.025590705
176	0x3d955276	0.07291119
177	0x3c81846d	0.015810216
178	0xbdf41c70	-0.119194865
179	0x3dbfa4a6	0.09357576
180	0xbd87e0d4	-0.066346794
181	0x3b98167c	0.004641352
182	0xbde8495f	-0.113421194
183	0x3e18bcfb	0.1491584
184	0xbd85417d	-0.065066315
185	0x3e4e65e3	0.20156054
186	0x3e210358	0.15723932
187	0xbdefa3c0	-0.11701155
188	0x3d7db0e9	0.061936293
189	0x3b10dec5	0.0022105437
190	0xbdc7cdfb	-0.097560845
191	0x3c5bb468	0.013409711
192	0xbe2fe0b5	-0.17175563
193	0x3e0a439e	0.13502356
194	0xbdad67ee	-0.08467089
195	0xbe2450c4	-0.16046435
196	0x3df05733	0.11735382
197	0xbd9d44d0	-0.076791406
198	0x3d713ac9	0.058893953
199	0xbcfa8545	-0.030581126
200	0xbcc39414	-0.02387432
201	0xbdb71688	-0.08939844
202	0xbe06c2f6	-0.13160309
203	0xbda12cd5	-0.07869879
204	0x3e11b27f	0.14228247
205	0x3d190faa	0.037368454
206	0x3d01c60e	0.03168302
207	0x3dd044e3	0.10169389
208	0x3dfd5543	0.12369778
209	0xbd5ed00d	-0.05439763
210	0x3cf78ae3	0.030217594
211	0x3e62dfea	0.22155729
212	0x3bdc3253	0.0067198663
213	0xbb2b6705	-0.0026153934
214	0xbd244af9	-0.040110562
215	0xbe2d1943	-0.16904168
216	0xbe19febf	-0.15038584
217	0x3d7075a5	0.058705945
218	0xbe5759a6	-0.21030292
219	0x3d884fde	0.066558585
220	0x3d2581c1	0.040406946
221	0x3d2c1b84	0.04201843
222	0x3e20f8fa	0.15719977
223	0x3d5aee23	0.05344976
224	0xb8af5a4b	-8.361469e-05
225	0x3d71577c	0.058921322
226	0x3d2b8185	0.041871566
227	0x3e362612	0.1778796
228	0xbd94d085	-0.072663344
229	0x3d83cb09	0.0643521
230	0x3ccebd43	0.025236731
231	0xbe2b0ecb	-0.16704862
232	0x3dc13c75	0.094353594
233	0x3c956752	0.018237744
234	0xbb830b55	-0.0039991536
235	0x3e15a8cd	0.14615174
236	0x3dc9d600	0.098552704
237	0xbdb729ff	-0.08943557
238	0x3e0c6241	0.13709356
239	0x3c758edc	0.014987674
240	0x3ded44d0	0.115853906
241	0xbd325c0d	-0.043544818
242	0xb9a29be7	-0.00031015204
243	0xbdc1a855	-0.09455935
244	0x3c9af728	0.018916681
245	0xbd21f1f0	-0.03953737
246	0xbdff83fc	-0.12476346
247	0x3ce8beac	0.028411232
248	0xbdca0288	-0.09863764
249	0x3dcaa0c2	0.09893943
250	0xbd92250a	-0.07135971
251	0x3cb1fe8b	0.02172782
252	0x3c06261e	0.008187799
253	0xbcf2139d	-0.029550368
254	0x3d9767e6	0.07392864
255	0xbdc4a608	-0.096019804

lstm.lstm.bias_ih_l0 f4 [256]
0	0x3e19d15b	0.15021269
1	0x3d70d0bb	0.05879281
2	0x3e4527de	0.1925349
3	0x3e022ec6	0.12713155
4	0x3d98e845	0.07466177
5	0x3dbb2e11	0.09139646
6	0xbde4b90a	-0.11168106
7	0x3dff0511	0.12452138
8	0x3e4ef0e6	0.20209083
9	0x3e43695a	0.19083157
10	0x3e04ffc3	0.1298819
11	0xbdeba639	-0.11506314
12	0x3e78ea40	0.2430811
13	0x3da729c9	0.08162267
14	0x3e158dcc	0.14604872
15	0x3d225831	0.039634887
16	0x3e40548d	0.18782254
17	0x3e2e87db	0.17044012
18	0x3e4dfc83	0.20115857
19	0x3e1011e3	0.14069323
20	0x3dc8f5c0	0.09812498
21	0x3e85ab07	0.26107046
22	0x3baff903	0.0053702607
23	0x3cba340f	0.022729902
24	0x3d0561bb	0.032563906
25	0x3e0e3e16	0.13890871
26	0x3cb8e407	0.02256967
27	0x3d0e76a0	0.0347811
28	0xbd7b149f	-0.061298963
29	0x3dec4ce0	0.115381
30	0x3e29528f	0.165354
31	0xbd11d692	-0.03560502
32	0x3e28a7ab	0.1647021
33	0x3e297980	0.16550255
34	0x3e315831	0.17318799
35	0x3b285d80	0.0025690496
36	0x3e68752e	0.2270095
37	0x3d3c27cd	0.045936394
38	0x3be115a1	0.0068690334
39	0xbac364ce	-0.0014907361
40	0x3d559f34	0.05215378
41	0x3e38433d	0.179944
42	0x3d66a974	0.056313947
43	0xbd12885d	-0.035774577
44	0xbd0c5fe7	-0.034271147
45	0x3d01f244	0.031725183
46	0x3e4d46c6	0.20046529
47	0x3d82b379	0.06381888
48	0x3e2e7983	0.1703854
49	0x3d31f5fc	0.04344748
50	0x3c83d8c8	0.01609458
51	0x3dff6a51	0.1247145
52	0x3dbcee16	0.09225099
53	0x3e2b2deb	0.16716735
54	0x3d00bfbf	0.031432863
55	0x3bad198e	0.0052825874
56	0xbc964c26	-0.018346857
57	0x3d266ce3	0.040631186
58	0x3cd9d2ac	0.026589714
59	0xbaa9d18f	-0.001295613
60	0x3dc860bb	0.09784075
61	0x3cc1ea19	0.023671197
62	0x3d83d837	0.06437724
63	0xbc909be0	-0.017652452
64	0xbe195173	-0.14972477
65	0xbdd87360	-0.10568881
66	0x3e28b5e8	0.16475642
67	0xbdd10ebe	-0.1020789
68	0xbd0064a1	-0.031345967
69	0xbe151b33	-0.14561157
70	0xb93848f7	-0.00017574789
71	0xbcfd3591	-0.030909332
72	0x3c259734	0.01010685
73	0x3e65d947	0.22446166
74	0xbc9198a1	-0.017772974
75	0xbe3eee9e	-0.18645713
76	0x3ce6e086	0.028183233
77	0xbd885dcf	-0.066585176
78	0x3dd71e4c	0.105038255
79	0x3b85c4ac	0.004082283
80	0xbd035471	-0.03206295
81	0x3dfc7b25	0.123281755
82	0x3d3045f1	0.04303545
83	0x3e2e033f	0.16993426
84	0x3c3d6062	0.011558624
85	0x3e3fb1d8	0.18720186
86	0xbd8948ac	-0.06703314
87	0xbcaec0fe	-0.02133226
88	0x3de113e7	0.10990124
89	0xbaf975bc	-0.001903228
90	0x3da38462	0.079842344
91	0x3dab938e	0.08377753
92	0xbda4371e	-0.08018325
93	0xbe3e0a46	-0.18558607
94	0x3d9cdd81	0.07659436
95	0xbd5a282a	-0.05326096
96	0xbc745bc2	-0.014914455
97	0x3ca85570	0.020548552
98	0x3c0c5ca0	0.008567005
99	0xbca208fc	-0.019779675
100	0x3e46fbfe	0.19432065
101	0x3cbbd73e	0.022929784
102	0xbe67b412	-0.22627285
103	0xbde58e0a	-0.112087324
104	0xbdad6a39	-0.08467526
105	0x3ca0c292	0.019624028
106	0x3d118cbe	0.035534613
107	0x3ba0fb41	0.0049127643
108	0xbd212d38	-0.039349765
109	0x3e6a2188	0.22864354
110	0xbcb5100d	-0.02210238
111	0x3e2b2da7	0.16716634
112	0x3e346e32	0.17620161
113	0xbdcfa8ea	-0.1013964
114	0xbdacfa78	-0.084462106
115	0x3da01df0	0.0781821
116	0x3de37976	0.11107151
117	0xbd16ecba	-0.036846854
118	0xbdaf8ea8	-0.085721314
119	0x3e022a68	0.12711489
120	0x3c4cbba0	0.012495905
121	0xbb4e822f	-0.00315107
122	0x3e0ec388	0.13941777
123	0x3de2d578	0.11075872
124	0x3d89d43e	0.06729935
125	0x3e0b4139	0.13599099
126	0x3dd06d5f	0.10177111
127	0xbd0be7b9	-0.034156535
128	0x3e0e84fd	0.13917919
129	0xbe0ab09a	-0.1354393
130	0x3db115ac	0.08646712
131	0x3dc0ad08	0.09408003
132	0xbd6fa206	-0.058504127
133	0x3d5eacfe	0.054364197
134	0xbd7c29c3	-0.061563265
135	0xbd4d6d73	-0.050153207
136	0x3e4b557b	0.19856827
137	0xbe31309c	-0.173037
138	0xbccf04b6	-0.025270801
139	0xbc7c9170	-0.015415534
140	0xbdfb2ca1	-0.12264372
141	0x3e2563bb	0.16151325
142	0x3d9b6f8b	0.075896345
143	0xbda6d1d5	-0.08145491
144	0xbd839d13	-0.06426444
145	0xbcabc568	-0.020968154
146	0x3d8ee46e	0.06977163
147	0x3d8a4aec	0.067525715
148	0xbe051517	-0.12996326
149	0xbc37d37f	-0.011219858
150	0x3e1a985a	0.1509718
151	0x3e3923fe	0.18080136
152	0x3b359272	0.0027705696
153	0x3d97ef78	0.07418722
154	0x3d0e54a7	0.0347487
155	0xbe4b9fda	-0.19885197
156	0xbe1cafaa	-0.15301386
157	0x3d056ce7	0.03257456
158	0xbe5e4348	-0.21705353
159	0xbccabaa0	-0.024747193
160	0xbdc7a483	-0.09748175
161	0xbe3a8613	-0.18215208
162	0x3e678720	0.2261014
163	0xbc15435a	-0.009110296
164	0x3e70239c	0.23451084
165	0xbdeaa361	-0.11456943
166	0xbd86aa1b	-0.06575414
167	0xbd3ea5f2	-0.046544977
168	0x3dbce18a	0.09222706
169	0xbe65788c	-0.22409266
170	0xbcb69569	-0.022288041
171	0xbd947125	-0.07248143
172	0x3d9c3543	0.07627346
173	0x3d6f4647	0.05841663
174	0xbd429b34	-0.047511294
175	0xbd083e72	-0.033262677
176	0xbe0e6e4a	-0.1390926
177	0xbd0bdd05	-0.034146328
178	0xbe0ad059	-0.13556041
179	0x3e1bd6f2	0.15218714
180	0xbe2855f6	-0.16439041
181	0xbe166d6f	-0.14690183
182	0x3db97f11	0.09057439
183	0x3d9a7dc1	0.07543517
184	0xbd59ed5b	-0.053204875
185	0x3df7e3d6	0.12104003
186	0xbdfce544	-0.123484164
187	0x3e00431d	0.12525602
188	0xbde73750	-0.11289847
189	0x3c4358f7	0.011923066
190	0xbe619ae6	-0.22031745
191	0xbdc21276	-0.094761774
192	0x3e4e0f01	0.20122911
193	0x3e4b98d3	0.19882517
194	0x3c6718b7	0.014105014
195	0xbd75b36f	-0.059985574
196	0x3d78c975	0.060739
197	0x3d5dc8c9	0.05414656
198	0xbcd271fa	-0.025689114
199	0x3e18c422	0.14918569
200	0x3e1784c9	0.14796747
201	0x3d50b4f0	0.050953805
202	0x3eeb3faf	0.45947024
203	0x3ccdd377	0.025125248
204	0x3eab5edc	0.3347081
205	0x3d0141d3	0.031556915
206	0x3e1e3c5a	0.1545271
207	0x3d6c95e0	0.05776012
208	0x3d504012	0.050842352
209	0x3cbe9c53	0.0232679
210	0x3d44a496	0.048008524
211	0x3cf78984	0.03021694
212	0x3dd43fed	0.103637554
213	0xbcd3e158	-0.025864288
214	0xbdae14ae	-0.08500038
215	0xbd46cdff	-0.048536297
216	0x3e02d58e	0.12776777
217	0xbda691fd	-0.08133314
218	0x3d1be5fb	0.038061123
219	0x3e145e6b	0.14489143
220	0xbd3dcdc3	-0.046338808
221	0x3e17740a	0.14790359
222	0x3e31abdb	0.17350714
223	0xbc80c703	-0.015719896
224	0x3dd816d9	0.10551233
225	0x3e2b9f51	0.16759993
226	0xbc3c01e2	-0.011475058
227	0x3e55f341	0.20893575
228	0xbd0685fd	-0.032842625
229	0x3e2e20c0	0.1700468
230	0x3e389f65	0.18029554
231	0x3e9ce1aa	0.30640918
232	0x3e02e82c	0.12783879
233	0x3de7f952	0.11326851
234	0x3d1ce867	0.038307574
235	0x3dda269c	0.106518954
236	0x3e33125a	0.1748747
237	0xbd8346a4	-0.06409958
238	0x3e4203c6	0.18946752
239	0x3dbe3001	0.092865
240	0x3dbcd002	0.09219362
241	0xbdceeafb	-0.10103413
242	0x3e0b5eaf	0.13610338
243	0x3e4f5608	0.20247662
244	0xbcb1001d	-0.0216065
245	0x3cff9183	0.031197315
246	0x3defe0fe	0.11712836
247	0xbcdb7943	-0.02679122
248	0x3dc4b894	0.09605518
249	0x3dcbc684	0.09949973
250	0x3ddb99f3	0.10722723
251	0x3cbb5efb	0.022872439
252	0x3e1bdc72	0.15220812
253	0x3df40b4c	0.11916217
254	0x3db168db	0.08662578
255	0x3d99d6d7	0.075116806

lstm.lstm.bias_hh_l0 f4 [256]
0	0x3e893b4a	0.26803046
1	0x3e450895	0.19241555
2	0x3d9551cc	0.07290992
3	0xbd1360e3	-0.03598107
4	0xbc48a27c	-0.012245771
5	0x3e119717	0.14217792
6	0xbd33e0b2	-0.043915458
7	0x3e0adb93	0.13560323
8	0x3ca39f47	0.01997341
9	0x3dce6092	0.10077013
10	0x3e859cbb	0.26096138
11	0x3d16b885	0.036797065
12	0x3e2c0f1e	0.16802642
13	0x3e0abd18	0.13548696
14	0x3e05ac72	0.13054064
15	0x3e181fed	0.14855929
16	0x3dda5d61	0.10662342
17	0x3e48bd0d	0.19603367
18	0x3e0c5e89	0.13707937
19	0x3cac0d11	0.021002324
20	0x3e5858b4	0.21127588
21	0x3c9131ad	0.017723883
22	0x3daf7c6a	0.08568652
23	0xbbe144ea	-0.0068746703
24	0x3d97296a	0.07380946
25	0x3e0c5e6e	0.13707897
26	0x3e06bf7d	0.13158984
27	0x3e146422	0.14491323
28	0xbd9078f0	-0.07054317
29	0x3e296ace	0.16544649
30	0x3e5a825f	0.21338795
31	0x3e2c3cbb	0.16820042
32	0x3e389a67	0.1802765
33	0xbbd5c5be	-0.006523817
34	0xbc305a8e	-0.010763777
35	0x3c8eb6a5	0.017421076
36	0x3e1c4c3a	0.15263453
37	0x3c0b8164	0.008514736
38	0x3c9a7475	0.01885436
39	0x3e4b6964	0.19864422
40	0x3d0af4d6	0.0339249
41	0x3d3475b8	0.044057578
42	0x3d4e3626	0.05034461
43	0x3e199f05	0.15002067
44	0xbd9bf210	-0.07614529
45	0x3d9a5fd0	0.07537806
46	0xbc725dc1	-0.0147928605
47	0x3de00c08	0.10939795
48	0x3e4eeff9	0.2020873
49	0x3ccd29bf	0.02504432
50	0xbd703dde	-0.05865275
51	0x3d356402	0.044284828
52	0xbda40466	-0.080086514
53	0x3dda2168	0.10650903
54	0xbc0624e0	-0.008187503
55	0x3df0e2ba	0.11761995
56	0xbd385726	-0.045004986
57	0x3d9b6906	0.07588391
58	0x3d59e1f6	0.05319401
59	0xbd68635d	-0.056735385
60	0x3cb5ddeb	0.022200545
61	0x3db08fb7	0.086211614
62	0x3da4a395	0.08039013
63	0x3e51a306	0.20472345
64	0xbe084748	-0.13308442
65	0xbe5e8bed	-0.21733065
66	0xbd0c0a5d	-0.03418957
67	0xbe2ff23d	-0.1718225
68	0x3cec9e3a	0.028884042
69	0x3d72f6b7	0.059317317
70	0x3dc572e5	0.09641055
71	0x3d970bc1	0.07375289
72	0x3d9bfac6	0.076161906
73	0x3e41052a	0.18849626
74	0xbe2270ed	-0.1586339
75	0xbe45cd16	-0.19316515
76	0xbd7a11ea	-0.06105224
77	0xbe31af65	-0.17352064
78	0x3c33185f	0.0109311035
79	0xbc54114c	-0.012943577
80	0x3e0cc876	0.13748345
81	0x3e0236ce	0.12716219
82	0xbd82bca0	-0.063836336
83	0x3e2d745d	0.1693892
84	0x3dab7e8e	0.08373748
85	0x3dbdf0da	0.092744544
86	0x3c5ae905	0.01336122
87	0xbd16ec65	-0.036846537
88	0x3cc46ade	0.02397674
89	0x3d994960	0.07484698
90	0xbda2684c	-0.07930049
91	0x3c8e2c21	0.017355027
92	0xbdb3ca98	-0.08778876
93	0xbc553280	-0.013012528
94	0xbc203c63	-0.009780022
95	0x3dd592f8	0.10428423
96	0x3e0f571e	0.13998076
97	0x3e2d1df5	0.16905959
98	0xbd1ecce9	-0.038769636
99	0xbdf854d5	-0.121255554
100	0x3e7004c0	0.23439312
101	0xbdc8856b	-0.097910725
102	0xbe22de20	-0.15905046
103	0xbdcf392c	-0.101183265
104	0xbdaf390d	-0.085558034
105	0x3dd81b7a	0.10552116
106	0xbd6de008	-0.05807498
107	0x3d1df5a7	0.03856435
108	0xbdc338cd	-0.09532318
109	0x3c71ef76	0.014766565
110	0x3d7bdce9	0.061489973
111	0xbc30aa47	-0.010782785
112	0x3e10456c	0.14088982
113	0x3dd9ec00	0.106407166
114	0xbdb9e122	-0.09076144
115	0x3dd5d6b2	0.104413405
116	0xbd618d3b	-0.05506633
117	0x3dce0c4a	0.10060938
118	0x3d3396f2	0.043845125
119	0x3c6d0682	0.014466884
120	0x3c727030	0.014797255
121	0xbd2a1e71	-0.041532937
122	0xbd964b60	-0.073385954
123	0xbd16127e	-0.03663873
124	0x3ddadb48	0.10686356
125	0x3cb49037	0.022041423
126	0x3de08f63	0.10964849
127	0x3de46ba6	0.11153345
128	0x3dead187	0.114657454
129	0x3cd3b003	0.025840765
130	0x3c98a0db	0.01863139
131	0xbd3072ac	-0.04307811
132	0xbe35026c	-0.17676705
133	0x3dac23f8	0.08405298
134	0xbe29ade0	-0.16570234
135	0x3dcd8c87	0.10036569
136	0x3e2a7573	0.16646366
137	0xbd58b1fb	-0.05290411
138	0x3e0d12be	0.13776681
139	0x3e27bc34	0.16380388
140	0xbd598356	-0.053103767
141	0x3dc458f1	0.09587277
142	0x3e36a931	0.17837979
143	0xbdc1cff3	-0.09463491
144	0xbe2b573b	-0.16732495
145	0xbe5cbf24	-0.2155729
146	0xbcdf39c3	-0.027249223
147	0xbe1eef7e	-0.15521047
148	0xbe419b7b	-0.18906967
149	0xbe2fb9c9	-0.17160715
150	0x3d9afd99	0.07567901
151	0x3d8316a9	0.064008065
152	0x3e54e02a	0.20788637
153	0x3e692c4a	0.22770801
154	0x3d9ad017	0.07559221
155	0xbe5f78da	-0.21823445
156	0xbc53104f	-0.012882306
157	0x3d83bee5	0.064328946
158	0xbe444af0	-0.19169211
159	0xbdb361f2	-0.08758916
160	0xbd47b6c3	-0.04875828
161	0xbe0bf83b	-0.13668911
162	0x3dfa530f	0.122228734
163	0xbe1f58d8	-0.15561235
164	0x3e7dda5c	0.24790329
165	0xbbfa784f	-0.0076437364
166	0xbdc7bd43	-0.09752896
167	0x3e19d474	0.1502245
168	0x3c48b3fb	0.012249942
169	0xbe69d3ec	-0.22834748
170	0xbd78ede5	-0.06077375
171	0xbe21fb8f	-0.15818618
172	0x3b9d45b2	0.004799568
173	0x3e7743fd	0.24147029
174	0xbd3f255c	-0.046666488
175	0xbd81afa0	-0.06332326
176	0xbe353cbe	-0.17698953
177	0x3d0a8f3d	0.03382801
178	0xbe0a0b4f	-0.13480876
179	0x3cf5957b	0.029978504
180	0xbe20a7f8	-0.15689075
181	0xbe244135	-0.160405
182	0xbc9aad63	-0.018881505
183	0x3e6af055	0.22943242
184	0x3e3ada39	0.18247308
185	0x3d03f3c1	0.032214884
186	0xbe40a142	-0.18811515
187	0x3d47c5d2	0.04877264
188	0xbe44e0ee	-0.19226429
189	0x3e2d2525	0.16908701
190	0xbe45bfea	-0.1931149
191	0x3d937134	0.07199326
192	0x3dcc2e3b	0.09969755
193	0x3e461973	0.19345646
194	0x3d8b1dc1	0.067927845
195	0x3c5e0a3b	0.013552244
196	0x3de23afc	0.110464066
197	0x3e5fc210	0.21851373
198	0x3d596655	0.053076107
199	0x3e0ce59e	0.13759467
200	0x3db5c729	0.088758774
201	0x3d33b46e	0.043873243
202	0x3e63574f	0.22201274
203	0xbd999bd4	-0.07500425
204	0x3e70f93c	0.23532575
205	0x3e030215	0.12793763
206	0x3d98a30f	0.07452976
207	0xbb3df151	-0.0028982947
208	0xbd705ee4	-0.058684245
209	0x3d5d2053	0.053985905
210	0x3e90ec3f	0.2830524
211	0xbcabb188	-0.020958677
212	0x3e4d3b57	0.20042168
213	0xbd1e574b	-0.038657468
214	0xbe2c560c	-0.168297
215	0x3e3ceffa	0.18450919
216	0x3d85c78f	0.065322034
217	0x3d1ce376	0.03830286
218	0x3da964bd	0.082711674
219	0x3c2ecbde	0.010668723
220	0x3d6c9d43	0.057767164
221	0xbce7681a	-0.028247882
222	0xbbc5690a	-0.0060244845
223	0xbd0153a5	-0.03157391
224	0x3da16613	0.07880797
225	0xbc38191a	-0.011236453
226	0xbca3b188	-0.019982114
227	0x3dfbcce0	0.12294936
228	0x3e0accdc	0.1355471
229	0x3baa652f	0.0052000503
230	0x3e624e3d	0.22100158
231	0x3dd04f70	0.101714015
232	0x3ddae9df	0.106891386
233	0x3d280d7b	0.04102848
234	0xbcd2f3c7	-0.025751008
235	0x3e16fe5e	0.14745471
236	0x3e12c8b8	0.1433438
237	0xba1edd21	-0.00060601725
238	0x3e7451fc	0.238594
239	0x3d500440	0.050785303
240	0xbd52e7e0	-0.051490664
241	0xbd8c3fe5	-0.068481244
242	0x3d3b0c54	0.045666054
243	0x3c47fde2	0.0122065265
244	0xbd6cdb07	-0.05782607
245	0x3e44833d	0.19190688
246	0x3c83658c	0.016039632
247	0x3db0bbf7	0.086296014
248	0xbdf2d30e	-0.11856662
249	0x3e0d1e18	0.13781011
250	0xbd56618a	-0.052339114
251	0xbdce77f9	-0.10081477
252	0x3e091c3e	0.1338968
253	0x3da59750	0.08085501
254	0xbc93da99	-0.018048571
255	0x3d02ade8	0.03190413

fc.weight f4 [1, 64]
0	0xc011ceb5	-2.2782414
1	0xc00f30c2	-2.237351
2	0x40121ad2	2.282887
3	0x400e7059	2.2256072
4	0xc010fbcb	-2.2653682
5	0x400dadb8	2.213728
6	0xc0127545	-2.2884076
7	0xc00ff6a2	-2.2494283
8	0x4011166b	2.2669933
9	0xc0101026	-2.2509856
10	0x4013b098	2.3076534
11	0x400c7789	2.1947958
12	0xc00d3cec	-2.2068434
13	0xc00ed537	-2.2317636
14	0x4010308e	2.2529635
15	0xc014340b	-2.3156765
16	0xc0147bd4	-2.3200579
17	0xc0142456	-2.3147178
18	0x400f7c22	2.2419515
19	0x40107221	2.2569659
20	0xc00d9725	-2.2123501
21	0xc0135c9a	-2.302527
22	0x40133ef0	2.3007164
23	0x40108162	2.257897
24	0x401432aa	2.3155923
25	0x400e3daf	2.2225149
26	0xc0125501	-2.2864382
27	0xc00eb607	-2.22986
28	0xc00bd49e	-2.1848521
29	0x4012811f	2.289131
30	0x400d367b	2.2064502
31	0xc012f91b	-2.2964542
32	0xc00ef89a	-2.2339234
33	0xc00b1970	-2.1734276
34	0x400ee210	2.2325478
35	0xc00da562	-2.2132192
36	0x400caea8	2.1981602
37	0xc01257e8	-2.2866154
38	0x400e7529	2.225901
39	0x400e67cf	2.225086
40	0xc00ef6ef	-2.2338216
41	0xc0141bf8	-2.314207
42	0xc00df9b3	-2.2183654
43	0xc0142f15	-2.3153737
44	0xc013a37f	-2.306854
45	0x400de9a1	2.2173846
46	0xc0122ba1	-2.283913
47	0xc0111774	-2.2670565
48	0xc0119b57	-2.2751062
49	0x40125465	2.286401
50	0xc0107730	-2.2572746
51	0x400e67d9	2.2250884
52	0xc01034f2	-2.2532315
53	0xc0136845	-2.303239
54	0xc010a7bf	-2.2602384
55	0x400c9001	2.1962893
56	0x4012360d	2.284549
57	0x400c92b0	2.196453
58	0xc00ea1cf	-2.228626
59	0x40140a44	2.3131266
60	0xc00f1104	-2.2354136
61	0x4014f65c	2.3275366
62	0xc0135b47	-2.3024461
63	0xc01216c0	-2.2826385
