best_model.pt (torch, 106618 bytes, 7 tensors)

cnn.conv.weight f4 [32, 7, 3]
0	0xbe22856b	-0.15871207
1	0x3e0288c1	0.1274748
2	0x3e152c92	0.14567783
3	0x3e1b0511	0.15138651
4	0xbe6244b8	-0.22096527
5	0xbd3c597d	-0.04598378
6	0xbe2eaf5e	-0.17059085
7	0x3c075b64	0.008261535
8	0x3e44af28	0.19207442
9	0xbc2c9e50	-0.0105357915
10	0xbde472ac	-0.111546844
11	0x3df56ca7	0.119836144
12	0xbd0af2a0	-0.03392279
13	0xbe403088	-0.18768513
14	0x3d73bb7a	0.059504963
15	0xbd87fdaa	-0.066401795
16	0x3dc779bd	0.097400166
17	0xbe128ca5	-0.14311464
18	0xbe22784c	-0.15866202
19	0x3d13c89b	0.036079984
20	0xbbf570df	-0.007490262
21	0xbda57570	-0.0807904
22	0xbd8d6f19	-0.06905956
23	0xbd564952	-0.052316017
24	0xbd172f9d	-0.036910642
25	0x3e0403e6	0.12892112
26	0x3cd9dcae	0.026594486
27	0x3e0b15b7	0.13582502
28	0xbe508eb7	-0.20366941
29	0x3e006309	0.12537779
30	0x3e1b43f9	0.15162648
31	0xbdc06ab5	-0.09395353
32	0xbdc2a4fb	-0.09504124
33	0x3c877214	0.016533889
34	0xbe1db111	-0.15399577
35	0x3c03c1f9	0.008041852
36	0xbd69d0cc	-0.05708389
37	0xbcb75f8d	-0.02238443
38	0x3e2a64db	0.16640036
39	0xbd9db0c0	-0.07699728
40	0xbe0bbdeb	-0.13646667
41	0xbe5ec1de	-0.21753642
42	0x3e54274c	0.20718116
43	0xbda1ccf2	-0.07900418
44	0x3d085cf6	0.03329178
45	0x3d93ba9c	0.07213327
46	0x3e2f14d8	0.17097795
47	0x3dc5ae4d	0.09652386
48	0x3c1aef45	0.00945646
49	0x3d8d9d57	0.06914776
50	0xbd74b5f2	-0.05974383
51	0x3e4b412a	0.19849077
52	0xbc9f93fa	-0.01947974
53	0xbd4906ca	-0.04907874
54	0x3e1f9453	0.15583925
55	0xbe1ee37f	-0.1551647
56	0xbe6d82b2	-0.23194388
57	0x3e2042b1	0.15650441
58	0xbdd2e106	-0.10296826
59	0xbcbf560a	-0.023356456
60	0xbcd2680c	-0.025684379
61	0xbe25d3fc	-0.16194147
62	0xbbd93a7a	-0.0066292854
63	0x3e452fdf	0.19256543
64	0xbe3c232c	-0.18372792
65	0xbe051162	-0.12994912
66	0xbe086ae0	-0.1332202
67	0xbe4a0ab2	-0.19730642
68	0x3e4e2953	0.20132951
69	0x3d9c7422	0.07639338
70	0xbe064f98	-0.131163
71	0xbdc12146	-0.094301745
72	0xbe2cc02d	-0.16870184
73	0xbe3f7efc	-0.18700784
74	0x3e214f79	0.15752973
75	0xbe252177	-0.16126047
76	0xbd8932b4	-0.06699124
77	0xbddacf2f	-0.106840484
78	0x3e3de957	0.18546043
79	0xbe01f202	-0.12689975
80	0x3e09350f	0.13399146
81	0xbc94b758	-0.018153831
82	0xbe0c2bf8	-0.13688648
83	0xbe58dfc6	-0.21179113
84	0x3ccb95d3	0.024851715
85	0xbbda981d	-0.0066709653
86	0xbe238c86	-0.15971574
87	0xbd87abe1	-0.0662458
88	0xbdbd68cc	-0.09248504
89	0xbe224ad3	-0.15848856
90	0x3e492399	0.19642486
91	0x3d728a04	0.059213653
92	0xbe5b5f7b	-0.21423142
93	0x3e676b13	0.2259944
94	0xbd9bb548	-0.07602936
95	0x3d4c6a54	0.04990609
96	0xbe3c1007	-0.18365489
97	0x3e1e46f8	0.1545676
98	0x3ddd12f5	0.107946314
99	0xbd89a2fe	-0.067205414
100	0xbe04a8ea	-0.1295506
101	0x3c609207	0.013706691
102	0x3cecc11e	0.02890068
103	0x3c738304	0.0148627795
104	0xbd432be7	-0.04764929
105	0x3db9f6d5	0.090802826
106	0x3dc96286	0.09833245
107	0x3c1cfa5b	0.009581174
108	0xbe00130c	-0.12507266
109	0x3cf54d38	0.029944047
110	0x3ddc584c	0.10759029
111	0xbdd3e863	-0.103470586
112	0xbda00c70	-0.07814872
113	0xbdf7c697	-0.12098425
114	0xbbc89479	-0.006121215
115	0x3e52e9c2	0.20596984
116	0xbdb58965	-0.088640966
117	0xbcff069c	-0.031131081
118	0x3e1817bf	0.14852808
119	0x3da76c00	0.08174896
120	0x3e635a0b	0.22202317
121	0x3dbb0eb7	0.09133666
122	0x3e2554f7	0.16145693
123	0x3dfe8a4d	0.124287225
124	0xbaabf167	-0.0013118208
125	0xbcb1f348	-0.02172245
126	0xbd0d3ad7	-0.034479942
127	0xbbcd8327	-0.006271738
128	0xbe3fba98	-0.18723524
129	0x3dcc48a8	0.099747956
130	0x3da56570	0.08075988
131	0x3c93e883	0.018055206
132	0x3e1eb594	0.15498954
133	0xbdae0a3e	-0.08498047
134	0xbd146fb1	-0.03623933
135	0xbd7c0bbe	-0.061534636
136	0x3e2cd2ff	0.16877364
137	0xbd43c9c5	-0.047799844
138	0xbe59ba51	-0.2126248
139	0x3c8b6074	0.017013766
140	0xbda5e459	-0.081001945
141	0x3db5f8ad	0.08885322
142	0xbd430937	-0.04761621
143	0xbde03fbe	-0.10949658
144	0x3ca0f468	0.019647792
145	0xbba3fc60	-0.0050044507
146	0x3c81a8f8	0.01582764
147	0xbe300c38	-0.17192161
148	0x3d4984f8	0.049199075
149	0x3e01bcab	0.12669627
150	0xbe26217f	-0.16223715
151	0xbe3ebb05	-0.1862603
152	0xbe15c0ff	-0.14624403
153	0xbe243f09	-0.16039671
154	0x3e4b8e71	0.19878556
155	0xbdd219c5	-0.102588214
156	0x3e1d0f05	0.15337761
157	0xbe3f5eb7	-0.18688475
158	0xbe327e0f	-0.174309
159	0xbd6481f4	-0.055787995
160	0xbd1768bb	-0.036965113
161	0x3e49ae9b	0.19695513
162	0x3dd2f685	0.10300926
163	0xbe3a5dbc	-0.1819982
164	0xbcfcf2b0	-0.030877441
165	0x3e5140f1	0.2043493
166	0xbe2598fe	-0.16171643
167	0x3e5c6818	0.21524084
168	0xbd836e9d	-0.06417582
169	0xbe0e5bb4	-0.1390217
170	0xbd1364fe	-0.035984986
171	0x3d484080	0.048889637
172	0xbb2777a7	-0.0025553496
173	0x3e34242a	0.1759192
174	0xbe172acb	-0.14762418
175	0xbbc70f4a	-0.0060748206
176	0xbd774b47	-0.060374524
177	0x3d69a873	0.05704541
178	0x3e591eb3	0.21203117
179	0x3dbbe5d9	0.09174699
180	0xbdf4655e	-0.11933397
181	0x3e3e76dd	0.1860003
182	0x3ce2c676	0.027682524
183	0xbe0d3952	-0.13791397
184	0xbdd9deb8	-0.10638183
185	0x3de19e25	0.11016492
186	0xbd1ecf8d	-0.038772155
187	0x3c7b9148	0.015354462
188	0x3da7db8e	0.081961736
189	0x3da7b288	0.08188349
190	0x3dcc0a86	0.09962945
191	0xbd5b4cbf	-0.053539988
192	0xbabc12c0	-0.001434885
193	0xbe2bc2b3	-0.1677349
194	0xbe54333a	-0.20722666
195	0x3e3d2e18	0.18474615
196	0xbe6f2c64	-0.23356777
197	0x3dca9c7b	0.098931275
198	0xbd967aeb	-0.073476635
199	0x3df6ec33	0.1205677
200	0xbe5ec807	-0.21755992
201	0xbc302b93	-0.010752576
202	0xb9fee5c2	-0.00048617838
203	0xbe08e1e8	-0.13367426
204	0xbd8f3fdd	-0.06994603
205	0xbe406673	-0.18789081
206	0xbe4e8167	-0.2016655
207	0xbd65954f	-0.056050595
208	0xbe424cdc	-0.18974632
209	0x3ba6ec40	0.005094081
210	0xbe89b7d0	-0.2689805
211	0xbddcb91d	-0.10777495
212	0xbe581fd1	-0.21105887
213	0xbdccd7b1	-0.10002077
214	0xbe06e89c	-0.13174671
215	0xbe63d0a5	-0.2224756
216	0x3de143fe	0.109992966
217	0xbde1e439	-0.11029858
218	0x3d0caaa6	0.03434243
219	0xbe5e3c56	-0.21702704
220	0x3df02330	0.117254615
221	0xbd642836	-0.05570241
222	0x3d87dffc	0.066345185
223	0x3ddf7e6d	0.10912786
224	0xbc8e2921	-0.017353596
225	0xbe4a57e2	-0.19760087
226	0xbe54d0d3	-0.20782785
227	0x3e0cb496	0.13740763
228	0xbe5bf8b5	-0.21481593
229	0xbe09231a	-0.13392296
230	0x3de6e6a1	0.11274458
231	0x3df3d7c7	0.11906391
232	0x3ddf0a72	0.10890664
233	0x3d4f2615	0.050573427
234	0x3d99f15a	0.07516737
235	0xbd55beb8	-0.052183837
236	0x3de869dd	0.11348317
237	0x3df0c425	0.117561616
238	0xbe248878	-0.16067684
239	0x3e7541e4	0.23950917
240	0x3d0ce570	0.034398496
241	0x3e692970	0.22769713
242	0x3e844727	0.25835535
243	0xb9bc1ab6	-0.00035878055
244	0x3d81dc09	0.063407965
245	0x3e783be8	0.24241602
246	0x3e20bc79	0.15696897
247	0x3c2f3f69	0.0106962705
248	0xbda9e2f2	-0.082952395
249	0xbd1b8cfb	-0.037976246
250	0x3d4eb51e	0.050465696
251	0x3e5b7b69	0.21433796
252	0x3cc90ff4	0.02454374
253	0x3c7eba63	0.015547368
254	0xbd9332b5	-0.07187406
255	0xbdce74c2	-0.100808635

cnn.conv.bias f4 [32]
0	0xbe6a2832	-0.22866896
1	0x3cae7c39	0.021299468
2	0xbe4dc773	-0.20095615
3	0x3b6363c0	0.0034696907
4	0x3b6813bb	0.003541215
5	0x3e60a20f	0.2193682
6	0x3e0f5da4	0.14000565
7	0x3d068c00	0.03284836
8	0xbd5f3e37	-0.054502692
9	0xbe3557fb	-0.17709343
10	0xbe5abf19	-0.2136196
11	0x3d288002	0.041137703
12	0x3d2e2b9e	0.042522065
13	0x3e82923f	0.25502202
14	0x3e0c2070	0.13684249
15	0xbda0a62a	-0.07844193
16	0xbe2f11a7	-0.17096578
17	0xbcae9555	-0.021311441
18	0xbdd81ef9	-0.105527826
19	0x3e01d639	0.12679376
20	0xbd8e3e88	-0.06945521
21	0xbd9945b6	-0.074839994
22	0xbc97139b	-0.018441966
23	0x3e5a1415	0.21296723
24	0x3dd83315	0.10556618
25	0x3dc9f76c	0.09861645
26	0xbd5566a6	-0.052099846
27	0x3e043a1d	0.12912793
28	0xbe47b13d	-0.19501205
29	0xbd18bb50	-0.03728801
30	0xbc137b22	-0.009001525
31	0xbd63e230	-0.05563563

lstm.lstm.weight_ih_l0 f4 [256, 32]
0	0x3df3277c	0.118727654
1	0x3d0bd864	0.034141913
2	0xbd929aa9	-0.07158405
3	0xbd818a94	-0.0632526
4	0x3d7cad6d	0.06168883
5	0x3d2459f2	0.04012484
6	0xbdb32ad6	-0.08748405
7	0xbdccd54e	-0.10001622
8	0x3d10bbff	0.035335537
9	0x3d8c67b2	0.06855716
10	0xbd468cc6	-0.048474096
11	0xbd8db985	-0.06920151
12	0x3d5ca228	0.05386558
13	0x3dc92f0b	0.09823426
14	0xbded4744	-0.115858585
15	0xbcb1b140	-0.021690965
16	0x3d3179ff	0.043329235
17	0xbda4f944	-0.08055356
18	0xbdc7e7fc	-0.097610444
19	0x3dd4debe	0.10394047
20	0xbc512670	-0.012765512
21	0xbdf00dbf	-0.11721372
22	0xbdfd818e	-0.12378226
23	0x3dec9624	0.115520746
24	0xbca199a0	-0.019726574
25	0x3d6ce4cc	0.057835385
26	0xbdf1502a	-0.11782868
27	0xbd9f4c78	-0.07778257
28	0xbd7b88c0	-0.06140971
29	0xbd0b7ad3	-0.03405268
30	0xbdb47eb2	-0.08813228
31	0x3a0b5300	0.0005314797
32	0x3d8e0f38	0.069364965
33	0xbd1b72ec	-0.037951395
34	0x3d69ed18	0.057110876
35	0x3cd25628	0.025675848
36	0x3bc19760	0.005907938
37	0x3daba834	0.083816916
38	0xbd03af58	-0.032149643
39	0xbc7bd3c0	-0.015370309
40	0x3c7eec90	0.015559331
41	0x3ccddd18	0.02512984
42	0x3d325c10	0.04354483
43	0xbc827f30	-0.015929788
44	0xbdf8814c	-0.121340364
45	0xbd7181e8	-0.05896178
46	0xbd95ba2e	-0.073109016
47	0xbd7a16f8	-0.06105706
48	0xbd0b9118	-0.03407392
49	0xbc7f40c0	-0.015579402
50	0xbdf33cd6	-0.11876838
51	0xbbb31960	-0.0054656714
52	0x3d7f13e8	0.062274843
53	0xbcaaf8a8	-0.020870522
54	0x3d977ba4	0.073966295
55	0x3daf5d8a	0.08562763
56	0x3d601a9c	0.054712877
57	0xbdfa2a56	-0.12215106
58	0x3d210538	0.039311618
59	0xbbc18c20	-0.005906597
60	0x3d8f997c	0.07011697
61	0x3d03b970	0.03215927
62	0x3da80040	0.08203173
63	0x3d51f890	0.05126244
64	0x3d3b357f	0.045705315
65	0xbd9046e1	-0.07044769
66	0x3de567b5	0.11201421
67	0xbd6df7a4	-0.058097497
68	0x3bf1a701	0.0073746447
69	0xbdc4c1cc	-0.09607276
70	0xbd03ac23	-0.032146584
71	0x3dcda913	0.10042014
72	0xbdc2ad31	-0.0950569
73	0x3d8941d1	0.067020066
74	0x3d643b8e	0.05572086
75	0xbd92b169	-0.071627446
76	0x3db00837	0.08595317
77	0xbad5eee7	-0.0016321809
78	0x3d489285	0.048967857
79	0x3db8f58c	0.09031209
80	0xbd18f597	-0.037343588
81	0xbd474f90	-0.04865986
82	0xbd17738f	-0.03697544
83	0xbdd1e6c8	-0.10249096
84	0x3db32892	0.087479725
85	0xbdb554fb	-0.08854099
86	0x3dbc4d3b	0.09194418
87	0xbcbb03bc	-0.02282893
88	0xbca00104	-0.019531734
89	0xbc8fdce0	-0.017561376
90	0xbd2dd39b	-0.04243813
91	0x3bb63ead	0.0055616708
92	0x3dcb95c2	0.099406734
93	0x3dbbf3e5	0.091773786
94	0x3d811599	0.063029476
95	0x3dd450ce	0.10366975
96	0x3c0c76b0	0.008573219
97	0xbcb45110	-0.02201131
98	0xbd0991e8	-0.033586413
99	0x3d4e6f64	0.0503992
100	0x3df52154	0.119692475
101	0xbd22860c	-0.03967862
102	0x3dbc70a6	0.092011735
103	0x3db164e0	0.086618185
104	0xbd1c3cd0	-0.038143933
105	0x3d90a3c4	0.07062486
106	0x3ded8360	0.115973234
107	0xbdc1cd28	-0.094629586
108	0xbdeac57e	-0.1146345
109	0xbcb4ad40	-0.022055268
110	0x3d0b8868	0.034065634
111	0x3d0802f4	0.03320594
112	0xbdd3f97e	-0.10350321
113	0x3ccd1480	0.02503419
114	0xbdc4387c	-0.09581086
115	0xbca9f6e8	-0.020747617
116	0xbd5b1914	-0.053490713
117	0xbdf97bea	-0.12181838
118	0xbd7fdeb8	-0.06246826
119	0xbda34bee	-0.07973467
120	0x3c136a60	0.00899753
121	0x3dd6a326	0.10480337
122	0xbdae79ea	-0.08519347
123	0x3ab1d480	0.0013567358
124	0xbdc17742	-0.09446575
125	0xbdd9bb9e	-0.10631488
126	0xbbce07e0	-0.00628756
127	0x3da39c84	0.07988837
128	0xbaed0980	-0.0018084496
129	0x3d83f9b2	0.0644411
130	0xbdc4c2a6	-0.09607439
131	0x3dc88e0e	0.0979272
132	0xbc4355a0	-0.01192227
133	0x3d23fb90	0.04003483
134	0xbc7a12d0	-0.015263274
135	0x3db037d4	0.08604398
136	0xbdb5e06c	-0.08880696
137	0x3ddaea0e	0.10689174
138	0xbd31f60c	-0.04344754
139	0xbbdb9900	-0.0067015886
140	0x3da094a2	0.078408495
141	0xbde9e264	-0.11420134
142	0xbd59bedc	-0.053160533
143	0x3d6a2ab0	0.057169616
144	0x3cd47aa8	0.025937393
145	0x3c92d480	0.017923594
146	0x3d660920	0.056161046
147	0xbd033b14	-0.032038763
148	0x3a050f00	0.00050757825
149	0xbd53403c	-0.05157493
150	0x3c991b78	0.018689856
151	0xbbe1d320	-0.006891623
152	0xbdd9e08c	-0.10638532
153	0xbd5818d4	-0.052758053
154	0x3cf57128	0.029961184
155	0xbdea76d2	-0.114484444
156	0xbdbfd24c	-0.09366283
157	0x3d817b64	0.06322363
158	0x3dd416ca	0.10355909
159	0x3df87faa	0.12133725
160	0xba4810c1	-0.0007631891
161	0x3dc14223	0.09436443
162	0xbd85ad89	-0.0652724
163	0x3d074d20	0.033032537
164	0xbd6188aa	-0.055061974
165	0x3d233bf9	0.039852116
166	0xbd852698	-0.06501502
167	0x3d7fb599	0.062429044
168	0xbd08a987	-0.0333648
169	0x3d97786d	0.07396016
170	0xbcd0d7b7	-0.025493486
171	0x3e15e2cb	0.14637296
172	0x3da307fb	0.079605065
173	0x3cc38cdd	0.02387088
174	0xbbb61051	-0.0055561443
175	0x3d016377	0.031588998
176	0xbbb3b4d4	-0.005484203
177	0xbcff6e8d	-0.031180644
178	0x3d278f35	0.040908057
179	0x3da8bf4a	0.082396105
180	0xbd868af6	-0.065694734
181	0xbcd13529	-0.025538044
182	0x3da12b28	0.078695595
183	0x3b8c3fbd	0.004280059
184	0x3dcb66ef	0.099317424
185	0xbdf04af8	-0.11733049
186	0x3de4d36b	0.11173137
187	0x3e02173f	0.1270418
188	0x3deb3a93	0.114857815
189	0x3bdc927d	0.00673133
190	0x3d83dec3	0.06438973
191	0x3d32801c	0.043579206
192	0x3dac00dc	0.083986014
193	0xbdce8e58	-0.10085744
194	0x3d7423a0	0.059604287
195	0x3d8c2df4	0.06844702
196	0xbb399e40	-0.0028323084
197	0x3d8d1946	0.06889586
198	0x3ce8bd08	0.02841045
199	0x3da7f04e	0.08200131
200	0x3d832f56	0.06405513
201	0xbd5fdfd8	-0.054656833
202	0x3d623cf4	0.05523391
203	0x3da51658	0.08060902
204	0x3caee4f0	0.0213494
205	0x3da34bcc	0.079734415
206	0xbdc6b116	-0.09701745
207	0x3c1ea1a0	0.009682089
208	0xbd81dc3c	-0.063408345
209	0xbd935f26	-0.071958825
210	0x3d687ba0	0.056758523
211	0x3df2cc0a	0.118553236
212	0x3b90e620	0.0044219643
213	0x3de42d40	0.11141443
214	0xbd414e08	-0.047193557
215	0x3dfc18ea	0.123094395
216	0x3d7fcc54	0.06245072
217	0x3d13ffc0	0.036132574
218	0xbdd3f2f8	-0.10349077
219	0x3cea4690	0.0285981
220	0xbcb250e0	-0.02176708
221	0xbd7d4d60	-0.06184137
222	0xbdb2642c	-0.087105125
223	0x3dc10e9a	0.09426613
224	0xbd465940	-0.04842496
225	0x3dd2b1dc	0.1028783
226	0x3deedd44	0.11663297
227	0x3cf29828	0.02961357
228	0xbcb2ef19	-0.021842526
229	0x3dd6c15f	0.10486101
230	0x3c951900	0.018200397
231	0x3d62096a	0.05518476
232	0x3dd6686a	0.10469134
233	0x3dfcd6ca	0.12345655
234	0x3d8bb286	0.0682116
235	0xbdd4518f	-0.103671186
236	0x3ccad1e8	0.024758294
237	0x3dbb96f7	0.09159654
238	0xbdce9924	-0.10087803
239	0x3c591b23	0.013251099
240	0x3da38cff	0.07985877
241	0xbd9acbea	-0.07558425
242	0xbd4a3006	-0.049362205
243	0xbc10cdc0	-0.008838117
244	0x3daaba82	0.08336355
245	0x3d2f766e	0.042837553
246	0xbcd0d315	-0.025491277
247	0x3ce85252	0.028359566
248	0xbd8702e3	-0.065923475
249	0xbd9bf918	-0.0761587
250	0x3d157294	0.036486223
251	0x3d9bf0f0	0.076143146
252	0x3cdfe918	0.027332827
253	0x3dc22b11	0.094808705
254	0xbd8ee9d4	-0.06978193
255	0xbd8e5cfc	-0.06951329

lstm.lstm.weight_hh_l0 f4 [256, 64]
0	0x3d10d6cc	0.035361096
1	0x3d99c230	0.075077415
2	0xbdfc8e1a	-0.12331791
3	0xbdae8168	-0.08520776
4	0xbda6aa08	-0.081379
5	0xbc97e5d0	-0.0185422
6	0xbd0cbad8	-0.034357876
7	0x3daf4f68	0.085600674
8	0x3db645ca	0.0890003
9	0xbd998254	-0.07495561
10	0xbd6dc1aa	-0.05804602
11	0xbdc666e0	-0.096875906
12	0xbcc56d1d	-0.02409988
13	0x3dc82c18	0.09774035
14	0x3ca94d53	0.020666754
15	0x39d5d600	0.00040785968
16	0x3c63d5c0	0.013905942
17	0xbd6c7bde	-0.057735316
18	0x3bcf075d	0.0063180164
19	0xbd9f10ea	-0.07766898
20	0x3da68c0a	0.08132179
21	0x3aca1c80	0.0015419871
22	0x3d307dce	0.043088727
23	0xbdecdaa4	-0.1156514
24	0x3dcd8f0a	0.10037048
25	0x3d1ea3ed	0.03873055
26	0x3cfd77f0	0.03094098
27	0x3d8dba0a	0.0692025
28	0xbda5ac80	-0.080895424
29	0x3db293ac	0.087195724
30	0xbcc21873	-0.023693299
31	0xbdbfdc76	-0.093682215
32	0xbcb3fbe8	-0.021970704
33	0xbdfceb06	-0.12349515
34	0xbc4b51c0	-0.012409627
35	0xbc52c3d0	-0.012864068
36	0xbd0fe34a	-0.03512887
37	0x3ded1456	0.115761444
38	0xbcedbc22	-0.029020373
39	0xba883f17	-0.0010394779
40	0x3dbd533e	0.09244393
41	0x3d15e820	0.036598325
42	0xbdc3fbb8	-0.09569496
43	0x3dbe55a8	0.092936814
44	0x3dd78ea6	0.10525255
45	0x3d379cdc	0.044827327
46	0xbdac112c	-0.08401713
47	0x3dd53644	0.10410741
48	0x3d833a0a	0.064075544
49	0xbcbedc58	-0.023298427
50	0x3dfc7e3a	0.12328763
51	0xbcde21a6	-0.027115654
52	0x3de44ea0	0.11147809
53	0x399e3800	0.00030177832
54	0x3c3900a0	0.011291653
55	0xbd971fb0	-0.07379091
56	0x3d9f612a	0.077822044
57	0xbd06455a	-0.032780983
58	0xbc581c40	-0.013190329
59	0xbda5a100	-0.08087349
60	0xbdf2657a	-0.11835761
61	0xbda5e05e	-0.08099435
62	0xbd1109b4	-0.035409644
63	0xbc96cd0f	-0.018408326
64	0xbd12ce24	-0.035841122
65	0x3d86dab2	0.065846816
66	0x3da1df1e	0.07903884
67	0xbd609d6c	-0.05483763
68	0xbda566b6	-0.08076231
69	0x3d09d484	0.033649936
70	0xbd342ba8	-0.043986946
71	0x3b87f3c0	0.0041489303
72	0xbddb6f90	-0.10714638
73	0xbd39fd7c	-0.045407757
74	0xbd682e88	-0.056685
75	0x3df06df8	0.11739725
76	0x3cf2a120	0.029617846
77	0xbd4c96d8	-0.049948543
78	0xbc884930	-0.016636461
79	0xbd16cb5c	-0.036815032
80	0xbd7be394	-0.061496332
81	0x3cff52d0	0.031167418
82	0xbdc05f68	-0.09393197
83	0x3d2194b0	0.03944844
84	0x3cf969f8	0.030446038
85	0xbdeecb80	-0.11659908
86	0xbdef94e8	-0.116983235
87	0xbcdcc5a8	-0.026949719
88	0xbd712c48	-0.05888012
89	0x3dd37ad0	0.10326159
90	0xbbb51100	-0.005525708
91	0x3daabfc8	0.083373606
92	0xbdd7294e	-0.10505925
93	0xbd4725ac	-0.04861991
94	0x3dbcb8a2	0.092149034
95	0xbd81f804	-0.06346133
96	0x3c6581e0	0.014008015
97	0x39d16a00	0.00039942563
98	0x3d056140	0.032563448
99	0x3d80f3ea	0.06296523
100	0xbda6bc58	-0.081413925
101	0x3dcf22a0	0.10114026
102	0x3c444a70	0.011980638
103	0xbd4cfef4	-0.05004783
104	0x3d57d458	0.05269274
105	0xbd890b6e	-0.06691633
106	0x3df6d046	0.12051444
107	0x3d7f31fc	0.06230353
108	0x3d86c69c	0.065808505
109	0xbdc3a4c8	-0.09552914
110	0xbdf3d8be	-0.11906575
111	0x3d42e990	0.047586024
112	0x3d1e4ae8	0.038645655
113	0xbddf89de	-0.10914968
114	0xbdcfab40	-0.10140085
115	0xbd7dc6e8	-0.06195727
116	0x3d5f7404	0.054554
117	0x3dad8170	0.08471954
118	0x3df706ce	0.12061845
119	0x3d968070	0.07348716
120	0xbdc199f8	-0.09453195
121	0xbcd113b0	-0.025522083
122	0xbc879a20	-0.016552985
123	0xbc9140d0	-0.0177311
124	0x3db5cae0	0.08876586
125	0x3bbc6900	0.0057498217
126	0xbd1fb740	-0.03899312
127	0xbdb0e8c6	-0.08638148
128	0x3d229be8	0.039699465
129	0x3dbf993c	0.09355399
130	0xbdbca91e	-0.09211944
131	0x3de2bd5c	0.11071274
132	0x3d5d03ac	0.05395858
133	0x3d85efdb	0.065398894
134	0x3dbabbd1	0.091178544
135	0x3d4ab010	0.049484313
136	0x3dc60d6e	0.0967053
137	0xbd4ec66e	-0.050482206
138	0xbd3f4a98	-0.046701998
139	0xbd511178	-0.05104205
140	0xbdc72fc7	-0.0972591
141	0xbd825792	-0.06364359
142	0x3b74eadb	0.003737143
143	0xbbff4a00	-0.007790804
144	0x3d9a1f0a	0.075254515
145	0xbd9cf8f6	-0.07664673
146	0xbddfea78	-0.10933393
147	0xbc4f3f9a	-0.012649441
148	0x3d4fd1c1	0.050737146
149	0x3d731520	0.05934632
150	0x3caefb96	0.0213602
151	0x3dd16453	0.102242135
152	0xbdd2273b	-0.10261389
153	0x3d778709	0.060431514
154	0xbdf272ba	-0.118382886
155	0x3d92255c	0.07136032
156	0x3da243c8	0.079230845
157	0x3d7909d0	0.060800374
158	0x3dbc99a3	0.092089914
159	0xbdd0a759	-0.10188169
160	0xbde9d9ae	-0.11418472
161	0x3dd86f8a	0.105681494
162	0xbc672709	-0.014108428
163	0x3d1e226f	0.038607057
164	0x3da20b9d	0.07912371
165	0xbd5c4554	-0.053777054
166	0x3dacf7c4	0.08445695
167	0xbccab22f	-0.024743168
168	0xbd6064ca	-0.05478362
169	0x3ddd8960	0.10817218
170	0x3d6dec4d	0.058086682
171	0x3d96b3dc	0.07358524
172	0xbdce1dec	-0.10064301
173	0x3d855cc7	0.065118365
174	0x3cc2ff30	0.023803324
175	0x3dc4eb12	0.096151486
176	0x3d2e02d4	0.042483166
177	0x3cda3ff0	0.026641816
178	0x3db59cb6	0.08867781
179	0x3d2f91bf	0.042863604
180	0xbd36f9ae	-0.044671707
181	0x3d8a8916	0.06764428
182	0xbcbc286c	-0.022968493
183	0x3dc7688e	0.09736739
184	0x3df7e18b	0.12103566
185	0x3dc1b4ea	0.09458335
186	0xbd8ecd3a	-0.069727376
187	0xbdfaa0f8	-0.122377336
188	0xbdf983be	-0.12183331
189	0xbde30bf1	-0.11086262
190	0xbdc68b14	-0.09694496
191	0x3d4ff583	0.050771248
192	0x3db29c2a	0.08721192
193	0xbda7aa96	-0.081868336
194	0xbdef9c58	-0.11699742
195	0x3ddedd3c	0.10882041
196	0xbd08a1e4	-0.033357516
197	0xbdbc8c44	-0.09206441
198	0xbdb8f582	-0.09031202
199	0xbdc4b3e6	-0.096046254
200	0x3df99efc	0.12188527
201	0xbdcb7bba	-0.09935708
202	0xbd374fd8	-0.04475388
203	0x3cee9848	0.029125348
204	0x3d75fa20	0.06005299
205	0xbd172118	-0.036896795
206	0x3dd0bf2a	0.10192712
207	0xba21d500	-0.0006173402
208	0x3dc91564	0.09818533
209	0xbd064008	-0.03277591
210	0xbdc7678a	-0.097365454
211	0xbdf9af4c	-0.12191638
212	0x3d7feeec	0.062483713
213	0x3dc03d8c	0.09386739
214	0xbd67428c	-0.05645995
215	0xbde978d6	-0.11400001
216	0x3cca1580	0.024668455
217	0xbdb8eb00	-0.09029198
218	0xbab31080	-0.0013661534
219	0xbdb02e9c	-0.0860264
220	0x3c28e470	0.01030837
221	0xbcba0968	-0.022709563
222	0x3bfcc340	0.0077137053
223	0xbcfa7a08	-0.030575767
224	0xbd3a0244	-0.045412317
225	0x3c2f9e40	0.010718882
226	0x3db574f6	0.08860199
227	0x3d921e56	0.07134692
228	0x3c28b540	0.01029712
229	0xbd631a8c	-0.05544524
230	0xbd79b15c	-0.06096016
231	0x3dc50b70	0.09621322
232	0x3d1b1c60	0.037868857
233	0xbdc4a460	-0.096016645
234	0x3b32db00	0.0027291179
235	0x3db6cae8	0.0892542
236	0xbc780d10	-0.015139833
237	0x3ccf8738	0.025333032
238	0x3d36a4b0	0.044590652
239	0x3d2759c8	0.040857106
240	0xbdbe67e4	-0.09297159
241	0x3d00c6f4	0.031439736
242	0xbce4b330	-0.027917475
243	0xbbe71640	-0.007052213
244	0x3d227d58	0.03967032
245	0xbdc71000	-0.09719849
246	0xbd13ac48	-0.036052972
247	0x3d354ac0	0.04426074
248	0x3d6a18d4	0.057152584
249	0xbd2aa1e4	-0.041658297
250	0xbcdb5970	-0.026776046
251	0xbdbb7116	-0.09152429
252	0xbdd23a9e	-0.102650866
253	0x3da020c6	0.07818751
254	0x3d7490b4	0.059708312
255	0x3d2acfb8	0.041702002

lstm.lstm.bias_ih_l0 f4 [256]
0	0x3df4e6bc	0.119580716
1	0x3cda43c0	0.026643634
2	0x3dd16dc9	0.10226018
3	0x3ddfcc14	0.10927597
4	0xbd0c3c2c	-0.034237072
5	0x3e04d3d4	0.12971431
6	0xbd43a5c8	-0.047765523
7	0x3d1d2c94	0.03837259
8	0x3dd5c3a8	0.10437709
9	0x3ce948c8	0.028477088
10	0x3bda7eb6	0.006667937
11	0x3dd4c872	0.103897944
12	0x3dad85a8	0.084727585
13	0x3cd4277e	0.025897738
14	0x3d11dddf	0.035611983
15	0x3ce43ab0	0.027860016
16	0xbdd1582e	-0.10221897
17	0x3c65ceec	0.014026385
18	0x3ce733e4	0.028222986
19	0x3c8db083	0.017296081
20	0xbdeb58cc	-0.11491546
21	0xba2651ba	-0.00063445757
22	0xbd06eedb	-0.032942634
23	0x3ce85eb0	0.028365463
24	0x3d3bb451	0.04582626
25	0x3cfb2ae4	0.0306601
26	0x3c30c089	0.010788091
27	0x3d7a12f8	0.061053246
28	0xbe2cf6e4	-0.16891056
29	0x3d277528	0.040883213
30	0xbdff0843	-0.12452748
31	0x3ddd405a	0.1080329
32	0xbdc37367	-0.095434956
33	0x3daa5d7c	0.08318612
34	0x3e160db0	0.14653659
35	0xbdeae170	-0.1146878
36	0xbd0d56b4	-0.034506515
37	0xbdad27b8	-0.084548414
38	0xbda1b02c	-0.0789493
39	0xbe204e7d	-0.15654941
40	0x3d09f40f	0.033680018
41	0xbd851441	-0.06498004
42	0xbd63ba75	-0.05559774
43	0xbd8adc38	-0.06780285
44	0xbd6f45d1	-0.05841619
45	0xbdf1143a	-0.11771436
46	0xbd0fd2b4	-0.03511305
47	0x3dff2dc8	0.12459904
48	0x3c585aee	0.013205273
49	0xbb9cace0	-0.0047813505
50	0x3d83aade	0.06429075
51	0xbd816a30	-0.06319082
52	0xbdd072a2	-0.101781145
53	0x3dc67fb1	0.09692324
54	0xbd85cba6	-0.065329835
55	0xbd6dc714	-0.058051184
56	0xbd9f6383	-0.07782652
57	0xbdcf7286	-0.101292655
58	0x3d55158e	0.05202251
59	0xbd4c8020	-0.049926877
60	0x3dccffec	0.10009751
61	0x3d19b85a	0.037529327
62	0x3ddfbe20	0.10924935
63	0x3dac44f1	0.08411587
64	0x3cca58f0	0.024700612
65	0x3c6c7760	0.014432758
66	0x3d5bc318	0.053652853
67	0x3d94366a	0.07236941
68	0xbde9a416	-0.1140825
69	0xbdf9fc9f	-0.12206387
70	0xbdf20d50	-0.118189454
71	0x3d48d03c	0.049026713
72	0x3c53f470	0.012936696
73	0x3c182dd0	0.009288266
74	0xbd48d5a0	-0.049031854
75	0x3d9c196a	0.07622035
76	0xbdf0a278	-0.117497385
77	0xbdeaf568	-0.11472589
78	0xbd9b08d7	-0.075700454
79	0x3d594fc0	0.05305457
80	0xbde53fac	-0.11193785
81	0x3c826f3a	0.015922178
82	0x3df5d299	0.12003059
83	0x3c92280f	0.017841367
84	0xbb25a300	-0.0025274158
85	0x3d908bd8	0.07057923
86	0xbda201d2	-0.079105034
87	0x3d0f9530	0.035054386
88	0xbd78c560	-0.060735106
89	0xbd2704cc	-0.04077606
90	0x3de423c4	0.11139634
91	0xbdf3ccd6	-0.11904304
92	0x3d005f20	0.03134072
93	0x3d9706c5	0.07374338
94	0xbd02c865	-0.031929392
95	0xbd94f8ef	-0.07274043
96	0xbda571ea	-0.08078368
97	0xbdb6a220	-0.08917642
98	0x3c5bd17f	0.013416647
99	0xbcd04bcf	-0.025426773
100	0x3df9e7aa	0.122023895
101	0x3d576de3	0.05259503
102	0x3df1f9a0	0.1181519
103	0x3dc8cc8a	0.09804638
104	0x3d55ce68	0.052198797
105	0xbdcd2de6	-0.1001852
106	0x3d49107f	0.049087998
107	0x3d2a8888	0.041634113
108	0x3d5d9738	0.05409929
109	0xbd2172cc	-0.03941612
110	0x3db8f9ca	0.090320185
111	0xbe1154e6	-0.14192542
112	0xbdb6cd5d	-0.08925889
113	0xbc50a250	-0.012734011
114	0xbd858036	-0.06518595
115	0xbc908e98	-0.017646119
116	0xbd1792bc	-0.03700517
117	0xbdcb7f9e	-0.099364504
118	0xbda6917a	-0.08133216
119	0xbcabfd48	-0.020994797
120	0x3d8bd16c	0.068270534
121	0xbd27ae24	-0.040937558
122	0x3cad0da3	0.021124667
123	0xbd7c9e68	-0.061674505
124	0x3d139b5c	0.036036834
125	0xbd422e91	-0.04740769
126	0xbdef1db4	-0.11675587
127	0x3d2a3b00	0.041560173
128	0xbd034c58	-0.03205523
129	0xbd884288	-0.06653315
130	0x3ddf8b99	0.10915298
131	0x3ddf5c92	0.10906328
132	0x3ce97c20	0.02850157
133	0x3c96429f	0.018342314
134	0x3d74c89d	0.059761632
135	0x3b8a4c20	0.0042205006
136	0xbd4c4a8c	-0.04987578
137	0xbc9c62cc	-0.019090079
138	0x3d731cb3	0.05935354
139	0xbdfe95ca	-0.12430914
140	0x3d35e484	0.044407383
141	0xbca51790	-0.020152837
142	0x3d68c967	0.056832697
143	0x3db0e722	0.08637835
144	0x3d10e29c	0.03537236
145	0x3dbbd80a	0.091720656
146	0xbdbd6ff0	-0.09249866
147	0xbd6d623f	-0.057955023
148	0x3dadb654	0.08482042
149	0xbd1b7a2d	-0.037958313
150	0x3ddfb326	0.10922842
151	0xbde41259	-0.11136312
152	0x3d1fd78c	0.03902392
153	0x3d6ed724	0.058310643
154	0xbd35d2c1	-0.044390444
155	0xbd58afe4	-0.052902117
156	0x3dadb9be	0.08482693
157	0xbd8d5620	-0.06901193
158	0xbdaa5b2e	-0.083181724
159	0x3d0ab827	0.033867028
160	0xbde91d68	-0.11382562
161	0x3dd9f9b0	0.10643327
162	0x3ceb9210	0.028756171
163	0x3d1c49bd	0.03815626
164	0x3c648f4e	0.013950182
165	0x3cc11398	0.023568913
166	0xbdab5d14	-0.083673626
167	0x3deb90dc	0.11502239
168	0xbda925b4	-0.082591444
169	0x3d3b1a82	0.045679577
170	0xbd426528	-0.04745975
171	0x3cc21ac0	0.023694396
172	0x3d66ac93	0.056316923
173	0x3ceec4d0	0.029146582
174	0x3ad90400	0.0016556978
175	0x3e193f45	0.14965542
176	0x3ce7b3f0	0.028284043
177	0x3dce7e68	0.10082704
178	0xbcc99a42	-0.024609689
179	0x3de6b87b	0.112656556
180	0xbdf77098	-0.120820224
181	0x3dbba632	0.091625586
182	0x3dcb9d45	0.09942106
183	0xbde7d34a	-0.11319597
184	0x3be9eba0	0.0071386844
185	0x3d25e8d6	0.040505253
186	0xbd204bbc	-0.039134726
187	0x3dfada88	0.12248713
188	0xbdccfd50	-0.10009253
189	0x3ddac014	0.10681167
190	0xbdec5d72	-0.11541261
191	0xbdd75ce0	-0.105157614
192	0x3db3883a	0.087662175
193	0xbde0b5a6	-0.10972147
194	0xbc0bba15	-0.008528252
195	0x3da9ce8e	0.0829135
196	0x3d3bbbe4	0.045833483
197	0x3cb50470	0.022096843
198	0xbcc9e71a	-0.02464633
199	0xbde68ffd	-0.11257932
200	0xbd1c976c	-0.038230345
201	0x3da4ddd7	0.08050125
202	0xbb6be9c0	-0.003599748
203	0x3d37f9c8	0.044915944
204	0xbaaa7396	-0.0013004418
205	0x3dbd9fba	0.09258981
206	0xbdbb6850	-0.091507554
207	0xbb82f8a0	-0.0039969236
208	0xbd351e08	-0.044218093
209	0xbda38fd6	-0.07986419
210	0xbd843916	-0.06456201
211	0x3d7fceb2	0.06245298
212	0x3c89ac11	0.01680568
213	0xbd67ef5c	-0.056624755
214	0xbdaa9d9d	-0.083308436
215	0x3e1b1b2c	0.15147084
216	0x3d19f1d8	0.037584156
217	0xbd961ac9	-0.073293276
218	0x3d94e6be	0.07270573
219	0xbdb9d106	-0.09073071
220	0x3dfb9241	0.12283755
221	0xbca7c7c7	-0.020481003
222	0x3dd09e40	0.10186434
223	0x3d3f0902	0.04663945
224	0xbdc66691	-0.09687532
225	0x3d86961c	0.065716
226	0xbd59e32c	-0.053195164
227	0x3d24ba2c	0.04021661
228	0x3dd59f84	0.10430816
229	0xbd961e61	-0.07330013
230	0xbcea5869	-0.02860661
231	0x3d105638	0.035238475
232	0xbe05251b	-0.13002436
233	0x3d7eafef	0.062179502
234	0x3d035043	0.032058965
235	0xbd416240	-0.04721284
236	0x3daa2b0a	0.0830899
237	0x3c859dc5	0.016310582
238	0xbd0662fc	-0.032809243
239	0xbdb7418b	-0.08948048
240	0xbd7d39cc	-0.061822698
241	0x3dc8776a	0.097884014
242	0x3dd97115	0.10617272
243	0xbd724ec5	-0.05915715
244	0x3da5a71e	0.08088516
245	0xbd662e00	-0.056196213
246	0x3ddf3ddf	0.10900473
247	0xbdf0a8e3	-0.117509626
248	0xbc45617d	-0.012047169
249	0x3d6e70e2	0.058213122
250	0x3d8908cd	0.06691132
251	0x3d7625a2	0.060094483
252	0xbd91bc48	-0.0711599
253	0x3d3b2add	0.045695174
254	0xbde71303	-0.11282923
255	0x3da8674e	0.08222829

lstm.lstm.bias_hh_l0 f4 [256]
0	0x3cc9d819	0.024639176
1	0xbd9416c8	-0.07230908
2	0x3d7b0fea	0.061294474
3	0xbcf0e538	-0.029406175
4	0x3d7185d4	0.05896552
5	0x3da61910	0.08110249
6	0xbd922e38	-0.07137722
7	0x3df27429	0.11838562
8	0xbbabcba0	-0.00524278
9	0xbbe56f00	-0.0070017576
10	0xbd1991ca	-0.03749255
11	0x3d60b9f4	0.05486484
12	0x3d11d8a8	0.03560701
13	0x3d9ee31a	0.0775816
14	0x3e02b616	0.12764773
15	0xbd51b704	-0.051199928
16	0x3dcf0a58	0.10109395
17	0xbd093ff1	-0.033508245
18	0xbcd04f8a	-0.025428552
19	0x3db24404	0.08704379
20	0x3db6d988	0.089282095
21	0x3c9f2c61	0.019430341
22	0x3dad829a	0.08472176
23	0xbd9ef06a	-0.07760699
24	0xbde69617	-0.11259096
25	0x3d45b143	0.048264753
26	0x3d7bb8c5	0.061455507
27	0x3c115920	0.008871347
28	0xbd163f3e	-0.036681406
29	0x3d0846c4	0.033270612
30	0x3dd1eddb	0.102504455
31	0xbc42641e	-0.01186469
32	0x3c8c177d	0.017101044
33	0x3d4dbc24	0.050228253
34	0xbd19b223	-0.0375234
35	0x3d09d57c	0.03365086
36	0x3dd6cc3c	0.10488173
37	0xbd183ab1	-0.037165347
38	0x3dabe520	0.083933115
39	0xbcd135a0	-0.025538266
40	0xbc68e999	-0.01421585
41	0x3db38363	0.087652944
42	0x3be1f3d4	0.0068955217
43	0xbc1c49b0	-0.009539053
44	0x3db46052	0.08807434
45	0xbcc25250	-0.02372089
46	0xbdd00b18	-0.10158366
47	0x3d1fce31	0.039015
48	0x3d1ca325	0.038241524
49	0xbd7d59dc	-0.061853275
50	0xbd19cb14	-0.037547186
51	0xbd5b856c	-0.053594038
52	0xbdc4c09c	-0.0960705
53	0xbda2dd81	-0.07952405
54	0xbd313917	-0.043267336
55	0xbcdf7759	-0.02727859
56	0xbd97928d	-0.07400999
57	0x3cc57c0f	0.024107007
58	0xbd61ff14	-0.055174902
59	0x3ded0226	0.115726754
60	0x3cc58b30	0.024114221
61	0xbdc58691	-0.09644807
62	0x3dcadb16	0.099050686
63	0xbd103821	-0.03520978
64	0xbd5f853c	-0.05457042
65	0xbd5689b8	-0.052377433
66	0xbd887c34	-0.06664315
67	0xbcfbc2f8	-0.030732617
68	0x3db414f0	0.08793056
69	0x3d406f74	0.04698129
70	0x3db9ed5c	0.09078476
71	0xbd9b12cc	-0.075719446
72	0xbddcf2ba	-0.10788484
73	0x3dceaf00	0.10091972
74	0x3c93d694	0.018046655
75	0xbdcbd65e	-0.09952997
76	0x3d56b198	0.05241546
77	0x3ae52200	0.0017481446
78	0xbdcaba67	-0.09898835
79	0x3dae5a0c	0.08513269
80	0xbd74f088	-0.0597997
81	0xbd5c0463	-0.05371512
82	0x3de0cdc3	0.10976746
83	0x3d904851	0.07045043
84	0xbcae98a8	-0.021313027
85	0xbddd39de	-0.10802053
86	0x3dd7cc2a	0.10536988
87	0xbd6974ac	-0.056996033
88	0xbd767208	-0.060167342
89	0xbddd3520	-0.108011484
90	0x3cdc8163	0.026917165
91	0xbd99f0ce	-0.07516633
92	0x3cba555e	0.022745784
93	0xbd61802a	-0.055053867
94	0x3db74eb1	0.08950556
95	0xbdc41093	-0.09573474
96	0x3d555f09	0.052092586
97	0x3de064f8	0.10956758
98	0xbd5f9df0	-0.05459398
99	0x3d9587c1	0.07301284
100	0x3d1fdf49	0.0390313
101	0x3d5ab8e7	0.053398993
102	0x3d199620	0.037496686
103	0x3d0079f9	0.031366322
104	0xbd6e8b38	-0.058238238
105	0xbdbf250e	-0.093332395
106	0xbc962a7a	-0.018330801
107	0xbd228348	-0.03967598
108	0xbd3136dc	-0.04326521
109	0xbdca2828	-0.098709404
110	0x3d9e483c	0.07728621
111	0xbd8aac70	-0.06771171
112	0xbd105a8f	-0.035242613
113	0x3d56d8e8	0.05245295
114	0x3d34ea40	0.04416871
115	0xbd5bae65	-0.053633112
116	0xbc282c50	-0.010264471
117	0x3cce67c9	0.025195973
118	0xbd3c3be8	-0.04595557
119	0xbda85bfe	-0.08220671
120	0x3c9f72be	0.019463893
121	0xbd11197d	-0.0354247
122	0x3ddec560	0.1087749
123	0xbdc133c8	-0.094337046
124	0xbddc4a5e	-0.10756372
125	0xbd26df09	-0.040740047
126	0x3d5ce548	0.053929597
127	0x3dfa8946	0.12233214
128	0xbdeee082	-0.11663915
129	0x3de22686	0.11042504
130	0x3dccc2cb	0.09998091
131	0xbd8447c0	-0.06458998
132	0x3a8efa80	0.0010908395
133	0x3d80c452	0.06287445
134	0xbcc99c1f	-0.024610577
135	0xbd925868	-0.071457684
136	0xbc3fbb50	-0.011702374
137	0x3b52fc31	0.0032193775
138	0x3dcda178	0.10040563
139	0x3d82f556	0.0639445
140	0xbdfcd596	-0.12345426
141	0xbd36e321	-0.0446502
142	0xbd8a30f7	-0.067476206
143	0x3cc5bf4c	0.024139069
144	0x3d274b8c	0.04084353
145	0x3b28ce1b	0.0025757614
146	0xbdac1fd4	-0.08404508
147	0xbd9ef8be	-0.077622876
148	0xbdcde0d8	-0.10052651
149	0x3ce69a9b	0.028149894
150	0xbd972776	-0.073805735
151	0x3b9cd71f	0.0047863866
152	0xbd9fbef9	-0.07800097
153	0xbdbe6c26	-0.092979714
154	0x3d83ec0f	0.06441509
155	0xbdb49e76	-0.088192865
156	0xbcf75eb8	-0.030196533
157	0x3c03ddcb	0.008048485
158	0x3da302aa	0.079594925
159	0xbd96294d	-0.07332096
160	0x3d8c5248	0.068516314
161	0x3c9f55f0	0.019450158
162	0xbcb9c510	-0.022676975
163	0xbd9eac33	-0.07747688
164	0x3cae29bb	0.021260133
165	0x3ced04a8	0.028932884
166	0xbdcfcda8	-0.10146648
167	0x3c2e8a60	0.010653108
168	0xbdbdba14	-0.09264007
169	0xbdc5f473	-0.096657656
170	0x3de8b21e	0.11362098
171	0x3cc6f910	0.024288684
172	0xbcb16f7f	-0.02165961
173	0x3dea2c68	0.11434251
174	0x3de816b0	0.11332452
175	0xbce33205	-0.027733812
176	0xbc4c54a0	-0.012471348
177	0x3ddc0840	0.10743761
178	0x3d61e4c3	0.055149805
179	0xbd6449ea	-0.055734552
180	0xbdb3421c	-0.08752844
181	0x3d1cf3e8	0.038318545
182	0x3dad7a2f	0.0847057
183	0xbd612398	-0.054965585
184	0x3d9be86e	0.07612692
185	0xb9760154	-0.00023460883
186	0x3c2654a0	0.010152012
187	0x3dc5d6ba	0.096600965
188	0xbdb1d41a	-0.08683033
189	0x3df98360	0.12183261
190	0xbb567380	-0.0032722652
191	0xbdd9d6a4	-0.106366426
192	0x3d607ed9	0.05480847
193	0xbca934f0	-0.020655125
194	0x3aa5885d	0.001262914
195	0x3cd8fb08	0.026486889
196	0x3dd44da8	0.10366374
197	0xbceb90a8	-0.0287555
198	0x3dbbc402	0.09168245
199	0x3d8279db	0.06370898
200	0xbdd88d66	-0.105738446
201	0x3d6b4e6e	0.057447843
202	0x3c276b10	0.010218397
203	0xbcbfa0e0	-0.02339214
204	0x3c3ed1f8	0.01164674
205	0xbdee3e44	-0.1163297
206	0xbc21c92d	-0.009874624
207	0x3d39925a	0.045305587
208	0x3c3b46f0	0.011430487
209	0x3d578834	0.052620128
210	0x3df5872c	0.119886726
211	0xbda7c5dc	-0.081920356
212	0x3de59069	0.11209185
213	0xbdd58f83	-0.10427763
214	0xbdaa30cf	-0.08310091
215	0x3d1b47fe	0.037910454
216	0xbc9d9425	-0.01923568
217	0xbd143eb1	-0.0361926
218	0xbd455e8a	-0.048185863
219	0xbca539d8	-0.020169184
220	0xbc304fef	-0.010761245
221	0xbd1556d9	-0.036459778
222	0x3dc44492	0.09583391
223	0x3b9c73d3	0.0047745495
224	0x3beeaae0	0.0072835535
225	0x3d4acab4	0.04950972
226	0xbc68a024	-0.014198337
227	0xbcd8c921	-0.026463093
228	0xbd7d5177	-0.06184527
229	0x3db8caf5	0.09023086
230	0xbe06a97a	-0.13150588
231	0x3da3606e	0.07977377
232	0x3d1be440	0.038059473
233	0xbe07e7c0	-0.13272
234	0x3dea2cc4	0.114343196
235	0xbcfe0560	-0.031008422
236	0xbdeb03c2	-0.11475326
237	0xbc6f2ef8	-0.014598601
238	0xbc2aac70	-0.010417089
239	0xbbccff37	-0.00625601
240	0x3d873b52	0.06603111
241	0xbdbb1df8	-0.091365755
242	0xbc867662	-0.016413871
243	0xbb056134	-0.0020352127
244	0xbde06a72	-0.10957803
245	0xbddcd71a	-0.10783215
246	0xbcaa634a	-0.020799298
247	0xbe01cc3e	-0.12675568
248	0xba8055ea	-0.0009791229
249	0x3cec29a2	0.028828446
250	0x3e2e5faa	0.1702868
251	0x3d1938ae	0.03740757
252	0x3ca31c8e	0.019911077
253	0xbd982a16	-0.07429902
254	0xbdca2153	-0.09869637
255	0x3dcf87bc	0.10133311

fc.weight f4 [1, 64]
0	0x3c3d5023	0.011554751
1	0xbcf13770	-0.02944538
2	0xbd2a49f6	-0.04157444
3	0xbd585e90	-0.052824557
4	0xbc851238	-0.016244039
5	0xbdb7635a	-0.08954497
6	0x3d3dd6b3	0.04634733
7	0x3dce83bb	0.10083719
8	0x3d15de84	0.03658916
9	0x3d84f2da	0.06491633
10	0x3e023cf3	0.12718563
11	0x3c2cc260	0.0105443895
12	0xbd2c50fb	-0.042069416
13	0x3d8d5bd8	0.069022834
14	0x3da0ee92	0.07858004
15	0xbdc3c7d8	-0.095596015
16	0xbdc9799c	-0.09837648
17	0xbc8dc8ba	-0.017307628
18	0x3df37b32	0.11888732
19	0x3c9f05f8	0.019412026
20	0x3da28c78	0.079369485
21	0xbd387386	-0.045032047
22	0xbb4c7731	-0.0031198973
23	0x3cc0eaa1	0.02354938
24	0x3d694979	0.056954835
25	0xbd2d214f	-0.042268094
26	0x3c7892ec	0.015171748
27	0x3dbaa9b4	0.091143996
28	0x3d27f9a0	0.041009545
29	0x3ca0accb	0.019613644
30	0xbcd699c1	-0.026196362
31	0xbd4fd260	-0.05073774
32	0x3d26ca0f	0.04072004
33	0xbca5bb08	-0.020230785
34	0x3c914aba	0.017735828
35	0x3c372624	0.011178527
36	0x3da5e5b4	0.08100453
37	0x3c53f745	0.012937372
38	0x3dbd45ab	0.09241804
39	0x3d49c8f7	0.04926392
40	0x3d1438a0	0.036186814
41	0x3ce0cae1	0.02744049
42	0xbd859ffa	-0.06524654
43	0xbddd4cc6	-0.10805659
44	0xbcd77000	-0.026298523
45	0x3ab63f21	0.0013904312
46	0x3d2b1748	0.04177025
47	0xbd1a103d	-0.037613142
48	0xbd77cfc0	-0.06050086
49	0x3debe0e8	0.11517507
50	0xbd1f3222	-0.03886617
51	0x3cdb9faf	0.026809542
52	0xbd29d2e7	-0.041460898
53	0x3df9d01b	0.12197896
54	0xbccf1a41	-0.025281074
55	0x3ccfee45	0.02538217
56	0x3d02aad7	0.031901207
57	0xbd25200f	-0.040313777
58	0x3d99ebe9	0.075156994
59	0x3ca9b817	0.020717664
60	0x3ca476a7	0.02007611
61	0xbc74e67f	-0.014947533
62	0x3ddce851	0.10786498
63	0x3c99089c	0.018680863
