best_model.pt (torch, 106618 bytes, 7 tensors)

cnn.conv.weight f4 [32, 7, 3]
00000000: e96f 823d 9c2c 303e e51a 0fbf b925 c6bc
00000010: fd3e 37be 7093 04bf a6be 12be f9f3 afbc
00000020: e4fa bfbe a6b2 3b3d eb16 04be fb8d 1abf
00000030: 0b2f 853d 0554 1c3d a88d d33c adf7 3a3e
00000040: 1b83 fb3d 9caa c33c 2e5b 1bbc 615c 56bc
00000050: 9499 1b3e e30b 183e eb04 06be 73ad 933e
00000060: 5363 fe3d 189a bcbe 12a3 5f3e f422 babc
00000070: d223 14be 917f d53e 4f94 77be cef6 cbbe
00000080: 2ac1 133e bc3c 343d e18d 443a b54d 3a3d
00000090: d5d1 4239 1384 023b a434 b5be b119 9e3e
000000a0: 4576 493e ae3a 1dbe 46fb 98bd 8bb0 dbbb
000000b0: ce85 f03d 74ef 283e eee0 43be 3348 d53e
000000c0: 8415 c43c 44f0 9dbe 8a4a 6d3e c27a b53d
000000d0: 61bf 37be 6392 9e3e 27b0 71bd 3b08 3c3d
000000e0: 3173 373c 61be e0bd 07aa 03bd c674 82bd
000000f0: 7acf 213d c8ab e1be ddd4 acbe 2d99 0dbe
00000100: 5653 7a3c d528 9cbe ab4e 01be b036 bf3e
00000110: f5bb cbbe 91a6 a0bd 3db1 a43e d773 95be
00000120: 1076 bbbd d045 d03d 9a0c b8be bf6c 83be
00000130: 32bf f23d 880c 0b3d 9500 b7bc b503 da3d
00000140: e677 3abd 85bd 493c b45f 14be 961d abbd
00000150: 171b 13be 6d65 a23e c0f3 b5bd 6677 55be
00000160: bce9 c53e f087 aebe 0a1b 3ebe 9f5f 873e
00000170: 20c1 86bd d90b 32be 926b 6d3e 3a26 403d
00000180: e32a 973d 4299 6e3d 45a9 883c 1f63 9abe
00000190: d5e1 ecbb 2386 c23d d90e e7bd b143 23be
000001a0: 1b70 e8bd 71a8 293e c001 01bf 4601 ac3d
000001b0: f38f ecbd 6146 0abf 92f2 e53d bf70 823d
000001c0: b1f7 04bf 491c 63bd e6bc 853d 085c bcbe
000001d0: f8d0 64be 2820 30bd 9e05 db3c 105b 7ebd
000001e0: 8a75 dfbd c814 d7bd 5aa8 f53c 78c5 8dbe
000001f0: f83b 823e 697f 8a3d 92b3 e53c b988 8d3e
00000200: 6c7d 083d 98b9 0ebe 8eef a03e 192d 8e3e
00000210: c6f8 b3be d275 823e 53d5 bc3e f705 96be
00000220: cf38 6c3e d415 953e dff2 4bbd 91bd c4bd
00000230: 982f ae3c 1e91 75bd 7479 583c 3561 bcbb
00000240: 137d 91be 68e9 72bc 855b fbbe 5b04 0cbe
00000250: ce60 3e3e 7cef 5abe 7a96 99bd 9629 933e
00000260: bcbb 5bbc bb2a 5cbe 4ca1 b03e c3ba cdbe
00000270: 7839 03be 6fcb a93e 2829 9cbe d9c5 96bc
00000280: dbba cc3c f62f 583d 592e 46bc f120 4cbc
00000290: 1b0b 1fbc 62c3 ae3d c9b2 2f3d bbc7 8a3c
000002a0: 1e4e 9ebe 70ef debd 49f9 a73e 79e7 933b
000002b0: 4ee4 31ba ab40 b03e 69d0 9bbe 104e 5ebd
000002c0: 994e c23e 7a26 7bbc 11ae 72be 40a4 f63e
000002d0: 9c06 3d3c e95c 793d c415 e83c a87b bd3d
000002e0: 3188 23bd 5853 01bc 8a59 41be bd29 cabd
000002f0: 1b90 82be 06d3 09be f9b7 6bbe 4db9 743e
00000300: 2d59 62bc 23f9 d5be e6cc 5e3e a6c2 0fbd
00000310: 6b68 d3be 346b d73e 9423 2e3e e362 a0be
00000320: 5bfb bc3e 1136 44bd 2bb5 323e 55ac 733d
00000330: a14f 413e bb0c 843d 64db 35bd 9792 0cbd
00000340: a3da 13be 6db8 56bd ab0a c03d fb40 26be
00000350: 0056 41bf 5c7f e0bd 7437 203d a984 36bf
00000360: b152 77bd 5f58 d73c d006 14bf d022 103e
00000370: 6554 4cbe 1ae0 1dbf 2652 053a c452 a43c
00000380: cd2b 233c 6b02 bb3c c5cf 733c de68 f63c
00000390: 08af 393e 4060 853e 728e e23d 689d a9bc
000003a0: 299a 97be 2948 67bd 5b72 803e bf72 8cbd
000003b0: aca9 953e 0735 e23d 6a4c 07be e99f 4e3e
000003c0: e2ca 9dbd a5ae 23be a0e1 7b3e b01f 7e3e
000003d0: 7c56 cc3b c103 a9bc 7bf0 9d3c ba00 8fbd
000003e0: 148f 953d e02f a3be fb17 8fbe 677c 713d
000003f0: e0d0 483e 552f 15be 2f10 a23d 0259 c53c
0.063690014 0.17204517 -0.5590041 -0.02418791 -0.17895122 -0.5178747 -0.14330539 -0.02147864
-0.37496102 0.04582467 -0.12899368 -0.60372895 0.06503113 0.038166065 0.025824383 0.18258543
0.12280866 0.023885064 -0.009482188 -0.013083548 0.15195304 0.14848284 -0.13087814 0.2884327
0.12421288 -0.36836314 0.2183955 -0.022721745 -0.1446679 0.41698888 -0.24177669 -0.39836735
0.14429155 0.044003233 0.0007497948 0.045484263 0.0001857945 0.0019915148 -0.35391724 0.30878976
0.19674022 -0.15354416 -0.074698016 -0.006704395 0.11744271 0.16497594 -0.19128773 0.41656646
0.02393604 -0.3084737 0.23172966 0.08861305 -0.17944099 0.3097106 -0.059005883 0.045906287
0.011196897 -0.10973812 -0.032144573 -0.06369929 0.039504506 -0.4407637 -0.33756152 -0.13827963
0.015278658 -0.30499902 -0.12627666 0.3734641 -0.39791837 -0.0784427 0.32166472 -0.2918994
-0.09153378 0.10169566 -0.35947114 -0.25668904 0.11852874 0.033947498 -0.022339145 0.10645238
-0.0455245 0.012313251 -0.14489633 -0.083552524 -0.14365803 0.31718007 -0.08884382 -0.20846328
0.38654888 -0.34088087 -0.18565002 0.2644014 -0.065798044 -0.17387332 0.23185566 0.046911456
0.07381227 0.058251627 0.016682277 -0.30153748 -0.0072290697 0.09498241 -0.11282129 -0.15943791
-0.113495074 0.16568162 -0.50393295 0.083986804 -0.11550894 -0.5401364 0.11227907 0.06369161
-0.5194045 -0.055446897 0.0653017 -0.36788964 -0.2234534 -0.042999417 0.026736077 -0.062098563
-0.10911091 -0.105020106 0.029987503 -0.2768972 0.25436378 0.06762583 0.028039727 0.27643374
0.033322737 -0.13937986 0.31432766 0.27768782 -0.35150737 0.25480515 0.36881503 -0.29301426
0.23068546 0.29118216 -0.049792167 -0.096064694 0.021262929 -0.059952848 0.01321255 -0.0057488927
-0.28415737 -0.014826156 -0.4909326 -0.13673536 0.18591616 -0.21380419 -0.07499404 0.28742665
-0.013411459 -0.21500675 0.3449806 -0.4018155 -0.12814891 0.3316302 -0.3050015 -0.018404888
0.024991443 0.052780114 -0.012096011 -0.012459026 -0.009707238 0.0853336 0.042895112 0.016940942
-0.30918974 -0.10885513 0.32807377 0.0045136777 -0.0006786034 0.34424338 -0.30432442 -0.054273665
0.3795059 -0.015328998 -0.23699214 0.48172188 0.01153722 0.06087962 0.028330691 0.09252101
-0.039924804 -0.007893406 -0.18881813 -0.09871242 -0.2550057 -0.13459405 -0.23019399 0.23898812
-0.0138152065 -0.4179164 0.2175785 -0.03509774 -0.41290602 0.42073977 0.1700576 -0.31325445
0.3691052 -0.047903124 0.17451923 0.05949052 0.18878032 0.06447741 -0.04439868 -0.034319486
-0.14438872 -0.052421976 0.09377035 -0.16235726 -0.7552185 -0.10961792 0.039115384 -0.71296173
-0.060381595 0.026287256 -0.57822895 0.1407578 -0.19954069 -0.61670077 0.00050857884 0.020058997
0.009959173 0.022828301 0.014881079 0.030079301 0.18133175 0.26049995 0.110623255 -0.02070494
-0.29609802 -0.0564653 0.25087246 -0.068578236 0.29231012 0.110452704 -0.13212743 0.20178188
-0.077047125 -0.1598459 0.24597788 0.24816775 0.0062358957 -0.020631673 0.01927971 -0.069825605
0.073026806 -0.31872463 -0.27947983 0.05895653 0.1961093 -0.14568837 0.07913243 0.024090294

cnn.conv.bias f4 [32]
00000000: 4e51 5f3d fc2c 433c d595 f63e 8dfa 6d3d
00000010: f1ab 623d e157 a3bc bafe cc3e 67de 3cbd
00000020: 8da6 5d3e 2c42 cbbc d419 8fbe 259a a33e
00000030: 8ae7 783e 6206 b83e 2fc1 8fbd b0d7 1e3f
00000040: 4e22 98be d658 763e 8462 29be b0c4 d2bc
00000050: f181 f93e e5f2 933e b030 0c3e 0fbf 873d
00000060: 600a 65bd 1ef4 d43c d1eb 7dbe d942 5ebd
00000070: 9343 9dbe d6d2 81bd fdfa e43c a392 9fbd
0.054520898 0.011912581 0.48161188 0.058100272 0.055339757 -0.019939365 0.4003809 -0.046110537
0.21645565 -0.024811827 -0.27949393 0.3195354 0.24307075 0.3594237 -0.07019269 0.62047863
-0.29713672 0.24057326 -0.16541487 -0.025728554 0.4873195 0.2889625 0.13690448 0.066282384
-0.055918097 0.02599531 -0.24796988 -0.05426297 -0.30715618 -0.06339042 0.027951712 -0.077916406

lstm.lstm.weight_ih_l0 f4 [256, 32]
00000000: c3bf 203e c7b3 c33d e5eb 003e c018 e13c
00000010: 87a4 36be 194d 54be a1c9 223e 2381 ccbb
00000020: 5f73 293e f861 053d 0226 203e 6699 903d
00000030: ece8 3ebe 763f d2bd b6e8 373e 4f10 043a
00000040: ccaf f5bd 1fd7 803b e7f9 3b3e b922 263e
00000050: 63a8 573e 291b 9cbb fab3 f1bd ecd3 1ebe
00000060: d53c 063d 911a 463e 8c86 5ebe aca0 eabd
00000070: 41d5 ad3e 646d 38be 3db2 a63d 1e25 f33c
00000080: 9f5e 49be f532 433e 3465 ac3e 9d92 923b
00000090: 1847 ea3c 0384 95bd a8b9 f83d b397 5c3d
000000a0: 14d3 2c3e a227 16bd 9ab6 84be 0ddc 9a3d
000000b0: 121c 0f3e 2e43 613e a78c d2ba 7c37 763e
000000c0: 06a1 eabd 440a 4c3e d1d8 f83d 8dce 5a3d
000000d0: b4e7 5d3e a961 b03d 7f6e eb3d 7353 9a3d
000000e0: 89c0 013e effe 033e b3d2 2bbd d2e3 f73d
000000f0: 90c3 9dbc 0961 ee3c 36a4 fe3d 5475 053e
00000100: 1477 223e ebec 8a3e ca83 673e 69e8 fbbc
00000110: 8c2c e33c 2bcd 3b3e 97fa c63e 9824 46be
00000120: f296 e73e 7413 913e fe39 3d3e e680 4b3e
00000130: db68 483e ed83 1e3e fb80 913e eb0c 3d3d
00000140: 6dcc 7b3e f7dc 8e3e d99d 69bd e7e4 e5bd
00000150: 9212 1a3e 8e25 353e a64d 2a3e bb09 67be
00000160: 6c0c 083e 820e 313d 01a2 0b3e 854e 563e
00000170: 4655 ac3e aed2 cebd b955 bbbd 4327 863e
00000180: 56f1 463e 33af a43e 5e0c 933e ea71 103b
00000190: fae1 6d3e 4314 513e 150d 8c3e 146a 593e
000001a0: 77ef 693e 397e 933e 88b9 f93d bc16 2b3e
000001b0: 27fc 7f3e ea98 003e e4f3 753e 5e42 663e
000001c0: cbba 653e 6fa0 843e 4767 5d3d 722e 6e3d
000001d0: d272 953e cb1e ef3d 0995 3e3e 5628 213e
000001e0: 765b 1a3e a987 043e 0ad6 443e c2d9 d13b
000001f0: 5818 753d 790b 853e a827 863e e7f0 803d
00000200: 71cb a63e 97c4 38bd f734 873d 1374 88bd
00000210: a776 4fbd c255 3abe 9f00 013d 5657 84be
00000220: 84c1 8a3e a6c9 083b f081 283f e925 a13d
00000230: 0a8a 8fbe 0a74 dcbd a468 493e 2607 103e
00000240: 8e9d 993e 58ad c0bd eca8 0cbe db1c dabd
00000250: 1ec5 373e 53ae 6bbc 7a64 40be 4672 62bd
00000260: 985c 623e 42d5 d83d e4c3 8b3d 963c e0bd
00000270: dfcd 303e dcb8 07be 0485 b6bd 1898 ccbc
00000280: 6436 103f 4705 393c 037e b239 4b01 9ebd
00000290: 21b8 dabd 91c4 12be bc30 543e 9b59 76bd
000002a0: 50be 103e a5e9 0cba 612d 563f 9b33 55be
000002b0: e43b e4bc d059 b53d de3d 673e 20b9 8f3d
000002c0: a362 cf3e cbba 18bd 6fad 683d 4366 89bd
000002d0: 1175 7c3e 6d7e 1bbc dcaf 96bd 8399 38be
000002e0: 93f4 b73e 0b44 a83d cb31 81bd f181 10bd
000002f0: 684e aa3e 3da7 be3d 20db 873c c23b 55bd
00000300: 3f80 823e 2f09 87bd 4978 da3d 6321 bdbd
00000310: 6c12 643d a3c0 29be 30d4 703e 2551 99bc
00000320: e45f 233e d08a c8bd 98fa fe3e 92c0 d1bd
00000330: 627c 25be 84f0 7fbd 3231 03be eff6 6f3e
00000340: f4b6 be3e 5a8b a6bb 32a7 333d fc91 bf3d
00000350: d98d 8a3e 49db 53be 7173 0bbe 553e b3bd
00000360: 07b6 023e 7efa 22bd 9692 993e 837f ccbd
00000370: 3f2c f03d 85a8 c93d 330f 993b 3f82 efbd
00000380: bfa8 f43e 9fce eb3d 7252 6bbd aa1b 60bd
00000390: e197 d63c 632b 8fbe 4540 bdbc 11ca c83d
000003a0: a361 823d b9c7 afbd 9c66 7b3f d5f8 e6bd
000003b0: b8e5 22be 2ae2 1b3e 2dcd de3d 35fa d43d
000003c0: 6085 3b3f dbcf 1339 e468 043e a5a4 89bd
000003d0: f076 583e 7bd3 16be 7207 43be 709a 80bd
000003e0: ff41 eb3d 918e e53c ff43 663e b4e0 6bbe
000003f0: cecc cd3e 3773 c83d 5161 06bd 1b4b cdbd
0.15698151 0.09555774 0.12589987 0.027477622 -0.178362 -0.20732535 0.15897228 -0.0062409802
0.16547917 0.032564133 0.15639499 0.070605084 -0.1864354 -0.102660105 0.17959866 0.00050378306
-0.11996421 0.0039318944 0.18357049 0.16224183 0.21060328 -0.00476398 -0.11801906 -0.1551053
0.032772858 0.19346072 -0.21731013 -0.11456427 0.33951762 -0.18010479 0.08139465 0.029680785
-0.19665001 0.19062407 0.33670962 0.004473044 0.028598353 -0.0730057 0.12144786 0.05385561
0.16877395 -0.03665889 -0.25920564 0.075615026 0.13975552 0.21998283 -0.0016063646 0.24044603
-0.11456494 0.19925791 0.121507294 0.05341964 0.21670419 0.08612377 0.11495685 0.07535448
0.12671103 0.12890218 -0.041948985 0.12104 -0.01925829 0.029099004 0.124336645 0.13033038
0.15865737 0.2713388 0.22608867 -0.03075047 0.027731203 0.18339984 0.3886306 -0.19349897
0.4523235 0.28335154 0.18479154 0.1987339 0.19571249 0.15480013 0.28418717 0.046154898
0.24589701 0.27902958 -0.0570353 -0.112253 0.15046147 0.17690107 0.16631183 -0.22562306
0.13285989 0.043226726 0.13636018 0.2092839 0.33658808 -0.10098778 -0.0914721 0.2620183
0.19428 0.32164916 0.28720373 0.0022040554 0.23230734 0.20417885 0.2735373 0.21231872
0.22845255 0.28807238 0.121935904 0.16707891 0.24998532 0.12558332 0.24018818 0.22486255
0.22434537 0.2590365 0.05405357 0.058149762 0.29189163 0.11675795 0.1861154 0.15738043
0.15073952 0.12942375 0.19222274 0.0064041326 0.05983767 0.25985315 0.2620213 0.062959485
0.32577088 -0.045109358 0.06601899 -0.066627644 -0.050650265 -0.18196777 0.031494733 -0.25847882
0.27100766 0.0020872145 0.6582327 0.07868559 -0.28035003 -0.1076432 0.19668823 0.14065227
0.30003017 -0.09408063 -0.13736314 -0.10650035 0.17946288 -0.014384824 -0.18788329 -0.05528476
0.22105634 0.10587551 0.068244725 -0.10949056 0.17266034 -0.13254112 -0.089120895 -0.024974868
0.56332994 0.011292762 0.00034044692 -0.0771509 -0.10679651 -0.14332797 0.20721716 -0.06014405
0.14135098 -0.0005375392 0.8366299 -0.20820467 -0.02786059 0.08855021 0.22582194 0.07017732
0.4050494 -0.037287515 0.056806024 -0.06708958 0.24654032 -0.0094905915 -0.07357761 -0.1802731
0.35928783 0.08216103 -0.063083254 -0.03528017 0.33262944 0.09309242 0.01658398 -0.052058943
0.2548847 -0.065935485 0.10667474 -0.09234884 0.05568163 -0.16577391 0.23518443 -0.01871545
0.15954548 -0.097921014 0.49800563 -0.10241808 -0.1616073 -0.062485233 -0.12811735 0.23434041
0.37248957 -0.00508253 0.04386062 0.09354016 0.27061346 -0.2068912 -0.13618256 -0.08752123
0.1276475 -0.03978967 0.2999465 -0.099852584 0.11727189 0.09846596 0.0046710013 -0.11694764
0.47784993 0.11514019 -0.057451673 -0.054713883 0.026195468 -0.2796279 -0.023101935 0.09804166
0.06366279 -0.08583016 0.98203444 -0.1127793 -0.15907943 0.15222993 0.10878978 0.10399286
0.7325039 0.00014096445 0.12930638 -0.067208566 0.21139121 -0.14729111 -0.19045809 -0.062794566
0.11487197 0.028022083 0.22486876 -0.23034936 0.40195316 0.097876005 -0.032807652 -0.10024091

lstm.lstm.weight_hh_l0 f4 [256, 64]
00000000: 7920 163e 1819 5dbe 123a 453e 34c0 333e
00000010: 0d67 47bd 701f 44be be5f 98be 3619 cdbc
00000020: 649f acbe 44c0 7ebd 4376 2a3e b51d 17be
00000030: 6ed0 3abe 4632 cc3d c119 2abe 6b1d 2abe
00000040: 61d1 40bd 869e 413e bf26 1bbe 8596 9abe
00000050: ab6d 30be e04a 09be e2dd 863e 7be7 5fbd
00000060: 3570 69bd 4804 333e faaf 8ebe 58ba f33d
00000070: ba49 f0bd f303 8f3c 4f20 31bc f773 463d
00000080: 157d 363e 4582 36be 9c4e 0fbe 4fcf a9bd
00000090: 31a8 563e faab 17bd 80fa 99be 8d14 823d
000000a0: c9bf 09be 622f ad3d dc9f 0ebe 76cd 8d3d
000000b0: 98ef 0d3e f4ed 813e 947b 0ebd 1b21 cdbd
000000c0: e62b cb3d e8b4 13be 0540 5f3d 953f 913e
000000d0: a699 cbbc 23f9 8839 ffc6 b2be 5964 853e
000000e0: 6a8a 91bd d199 dd3d 4fa7 143c ecc4 25be
000000f0: a548 4b3d 6693 983d f477 0abf 4033 b73d
00000100: 13af 24be ff0e 1ebd e704 283c 5aef 36be
00000110: 9312 4ebe aeea 3abe d6c0 a13d 8ca2 93bd
00000120: c64d c33d 6dff 683d 7af1 d3bd 01c6 38be
00000130: cd21 5b3e 121c 62be 6a19 f7bd c583 573e
00000140: dd3d 863d 4fc9 fc3d 820e e93d 0861 0d3e
00000150: 60d1 103e cf80 803d d544 2dbe 2acc d13d
00000160: b843 343b 2693 34be db42 a2bc 313e 0fbe
00000170: 5304 403e 60f4 193e 5ad7 29be 4b35 3f3d
00000180: bb7f 45be 7174 4c3e a5b5 b33d abc3 9dbd
00000190: 5599 243d a4a0 ea3d 4ae0 d73d dae7 d93d
000001a0: 8ffb 743d 98a9 d23d 0bfb 62bb 0f65 c3bd
000001b0: 3f3d 7fbe acbd fabd 4e1d 18be f861 083e
000001c0: 8c7d 27bd 5fe5 773d 7911 2a3e 3885 4ebe
000001d0: 6322 bc3c 5057 28bc 3aa6 103d e8e8 5ebe
000001e0: 805d 023e 73bc 06be 10c8 fbbd 42db 31be
000001f0: a27f 4abe 83f6 0d3e 8509 3fbb c1b6 98be
00000200: 30d1 413e a2a0 7dbd abd3 dfbd 6c3a 1e3d
00000210: bac1 703e b15b 65bd 091d 2fbd 6a25 acbd
00000220: f2a7 11be 416e 21bd 0245 3bbe f2b3 903d
00000230: 4b76 213e 8e11 3f3e d739 cd3d 7d12 2c3d
00000240: c5dc 13be 895a bd3e d880 a23d feb1 f93d
00000250: b7b4 3c3e 4086 523e 8865 00be 0e5c 0bbe
00000260: 8647 483d 275a 42be 814e 013d 7a18 faba
00000270: 3485 6e3e 478e 163e 938a 48be f7a1 df3d
00000280: 484c f4bc 2c94 32bd 85e8 b23e f7a1 29bd
00000290: 0383 813d 249f 1abe d980 81be a6cc 1abe
000002a0: 74bd 503d 36a8 ff3d 2509 853d b979 113e
000002b0: b9ef 0ebd 3b04 1cbe a444 bbbc c345 053e
000002c0: 6873 573e aee6 25be a418 973e a6a7 1c3e
000002d0: cf58 313e d042 b2be 5774 b6bd 331b 1ebd
000002e0: 4192 1cbd 30de f4bc 3b41 67be 2d5f c73d
000002f0: 26b7 16be a307 6a3b f7c5 263d 3f22 35be
00000300: 486a e1bc a981 ecbc 2acc d43c f599 04be
00000310: d862 fabd 63bc 8fbe bdcb 6a3b 1a50 a43d
00000320: 63ea c8bd 7f08 c13d f441 60be a03d 02be
00000330: e1d4 81bc 4e2d 033d 05ed cebd d5d0 c3bd
00000340: 16e4 5a3d 3e55 e2bd 8041 f7bd a09c 803d
00000350: 543b a83d 8cad 103d 832a 3d3d 4182 3d3c
00000360: dfe1 33bd 3d94 67bd 73ca 00be 5264 8d3d
00000370: d855 dd3d da54 703e 2b23 32be d0c1 c6bd
00000380: c6ac e6bb aaef 99ba bcf0 b7bc fe52 5abd
00000390: 1be0 433e 9f00 32bc e54c cf3c c8ab c9bd
000003a0: 6fdb dfbd 128a a23e 4d20 303d 5fe8 72be
000003b0: ca1d ec3d 9376 2e3c b9b9 80be 48c0 aa3c
000003c0: 7cb1 9f3b 4f6c 80be 347a 48bc f34e 0f3d
000003d0: 40d5 333d 2033 1e3d 0809 41be 2b17 88bd
000003e0: 75bd b1bd aa7f 84bd 383a d2bd 6120 83bd
000003f0: 61d6 023d cb50 a1bc 9e41 12ba 3ddb a13d
0.14660825 -0.21591604 0.19260433 0.17553788 -0.04868226 -0.19152617 -0.29760545 -0.025036436
-0.33715355 -0.062195078 0.16646676 -0.14757426 -0.18243572 0.099705264 -0.16611387 -0.16612785
-0.04707468 0.18908128 -0.15151499 -0.30192962 -0.17229335 -0.13407469 0.26341158 -0.054664116
-0.056991775 0.17482102 -0.27868634 0.119007766 -0.11732812 0.017457938 -0.010810926 0.048450436
0.17821153 -0.17823131 -0.13994831 -0.08291494 0.20962597 -0.037029244 -0.3007393 0.06351576
-0.13452066 0.08456303 -0.13928169 0.06923954 0.13860929 0.25376856 -0.034785822 -0.1001608
0.09920482 -0.14424479 0.054504413 0.28368822 -0.024853539 0.00026125563 -0.34917447 0.26053122
-0.071064785 0.10820354 0.009073093 -0.16188401 0.049629826 0.07449989 -0.54089284 0.08945322
-0.1608241 -0.03858852 0.010255075 -0.17864743 -0.20124273 -0.18253586 0.07898109 -0.07208738
0.095363185 0.056884218 -0.103487924 -0.18044282 0.21399613 -0.2208102 -0.12065394 0.2104636
0.06554768 0.12343084 0.1137972 0.13806546 0.1414237 0.06274568 -0.16920789 0.10244019
0.0027506184 -0.17634258 -0.01980727 -0.13988568 0.1875165 0.15034628 -0.16586056 0.046681684
-0.19287007 0.19966294 0.0877488 -0.07703336 0.04018529 0.11456421 0.105408266 0.10639925
0.059810217 0.10286254 -0.0034634497 -0.0954076 -0.24925707 -0.12243208 -0.14854929 0.13318622
-0.040891215 0.06052148 0.16608228 -0.20168006 0.022965616 -0.010274723 0.035314776 -0.21768534
0.1273098 -0.13157825 -0.12294018 -0.17368796 -0.1977525 0.13863568 -0.0029149961 -0.2982693
0.18927455 -0.06192077 -0.10929044 0.038629934 0.23511401 -0.055995647 -0.0427523 -0.08405574
-0.14224222 -0.039411787 -0.18288043 0.07065572 0.15767781 0.1865904 0.10020798 0.04200982
-0.14439686 0.36983135 0.07934731 0.121921524 0.18428312 0.20559025 -0.12538731 -0.13609335
0.048896335 -0.18979703 0.031569008 -0.0019080781 0.23293 0.14702712 -0.19584112 0.10919564
-0.02982153 -0.04359834 0.34943023 -0.041414227 0.063238166 -0.1509977 -0.25293615 -0.1511713
0.050961927 0.124832556 0.06495885 0.1420659 -0.034896586 -0.15235989 -0.022859879 0.13014893
0.21040118 -0.16201279 0.29510987 0.15298328 0.17319034 -0.348166 -0.08908909 -0.038600158
-0.038225416 -0.029891104 -0.22583477 0.0973495 -0.14718303 0.0035710118 0.040716138 -0.17688845
-0.0275165 -0.02887042 0.02597626 -0.12949355 -0.12225884 -0.28073415 0.0035827004 0.08023091
-0.09810331 0.094254486 -0.21900159 -0.1271882 -0.015848579 0.032025628 -0.10103802 -0.09561316
0.053440176 -0.11051415 -0.1207304 0.06279874 0.08214441 0.035321757 0.04618312 0.0115666995
-0.04391658 -0.056537855 -0.12577228 0.069039 0.10807389 0.23469868 -0.17396228 -0.097049356
-0.007039639 -0.0011744399 -0.022453658 -0.053301804 0.19128458 -0.010864406 0.02530522 -0.09847218
-0.109305255 0.31745964 0.042999554 -0.23721455 0.11529119 0.0106483875 -0.25141695 0.02084364
0.0048734527 -0.25082633 -0.012236167 0.0349874 0.043904543 0.038622975 -0.18851101 -0.06645044
-0.08678714 -0.064696625 -0.102650106 -0.0640266 0.03194273 -0.019691845 -0.0005579236 0.079031445

lstm.lstm.bias_ih_l0 f4 [256]
00000000: e1a3 24be 884b 9f3e 51d5 123e 918b 933d
00000010: ccf5 52be 5e2a 733d 03f0 26be 1ec2 aebe
00000020: 17d8 7d3e 437f 273e 7294 f23d da8b a9bd
00000030: 16af f83d f568 953d 65e1 7c3b d22f a1bd
00000040: ae19 b73d 0631 cd3d dc24 243e 95de ba3c
00000050: 39e9 8fbd b18c 843e 30e0 9cbd 2c4c bfbd
00000060: 94a6 77bc 11e9 03be 30bf 8c3e 9d41 12be
00000070: 3728 b23d 0c3e c43c cec9 923d f7c7 2ebd
00000080: 307e 863e 8b54 c33d 78cc 053d 6883 4b3d
00000090: ae36 6dbc e2aa 4bbe 4428 153d efb8 cf3d
000000a0: 548f a13d 7c9f 553d 1f37 bf3d 06cd 0f3e
000000b0: 9717 323c 358b 1a3c cc16 02ba 78a2 333e
000000c0: 6907 0d3c 1e64 e3bd a38f 1ebe f3e2 dcbd
000000d0: f707 3dbe dc11 043e edb3 06be 8cac bbbd
000000e0: 6076 543e c33d 84bd 5294 263e f8ae 55bc
000000f0: 7710 9c3e a3ae 153e 18f3 543d 101d 373d
00000100: 095f c9bd 796b 37be 650d dfbd 180d 473e
00000110: 7a12 70bd 26fa fb3d 50a3 c2bd 580b de3b
00000120: 99c5 a93d 4471 78be 95f5 8e3e ceb3 3fbe
00000130: 12d3 e13d 1cf8 24be 46a7 dfbb 0e2a 40bc
00000140: 51df 0abd e065 5cbe f184 c93d abf6 33be
00000150: c9e3 3fbd 6d13 a93d 2f81 c63c df47 9a3d
00000160: 93b6 273d 1852 98be 67be 06be 3bc0 aebd
00000170: fe6a 2abe c2b6 d4bc 7cd3 d53d c528 ba3c
00000180: 29d1 9f3d 3403 a3bd 5d90 b43c 2a40 d73c
00000190: ab93 5aba a4a7 743d d778 f23c 0e72 72bc
000001a0: 1738 833b b8a7 1d3e f64f 163d e32a a6bd
000001b0: 6cfe 42bc f9ad 45bd 4dc1 573d 9f82 a93d
000001c0: d617 02be f3e0 aa3c 100e 96bd cbb7 c9bb
000001d0: a841 8cbd 29d6 34be a801 61bd 108f c53c
000001e0: a9ea 923c bc99 e7bd abc4 2c3e dfff fcbd
000001f0: 1fb0 89bc c8c3 853d 4f2f 68bd a055 bf3c
00000200: d5ae 06bd 4e5e 64be e313 65be ecb3 f0bc
00000210: 7080 dfbd 0cff 92be 69bf 123c 30f4 993d
00000220: 9a46 883e 99fa 2fbe b94f dbbc 743e b8bd
00000230: 36b0 f03c 49ce 833d 9f73 2a3c 5bd7 e8bc
00000240: 629f b03d 2a05 30bd d66a 2ebe 331b 05bd
00000250: 9721 2a3d 11de ae3e 3342 b43b b73d edbc
00000260: 2f85 dcbd 6bbc ccbd 01a4 ad3d 1e42 393e
00000270: 6523 51bd eb36 d03d 778a 2f39 2faf d9bd
00000280: e2a3 52bd 58df 65bd 8323 ca3c 9a08 4ebe
00000290: f8da 253e 3400 83bd ab0a 463d 4d1d d7bd
000002a0: 839e 7abc c742 8a3d c734 6abd 78a4 17be
000002b0: 5b2d 9dbd f9cc 443d 215b 14be d35e 7b3d
000002c0: 297c 30bc c481 ae3d 98f5 203c 060b 75bd
000002d0: dedf 973d 95a2 fd3d aae5 ed3c 7d36 22be
000002e0: 3559 4c3d ccad 39be 945e 87be 297f 453c
000002f0: 8c2f 79be 0274 51bc 07fe 40bd 5e16 e4bd
00000300: 5b07 41be b3a6 40bd 5243 7f3e c20b bb3d
00000310: f35f 83bc 7743 f83d e545 86be 6571 c2be
00000320: acd9 3b3e f499 29be 87ae 8f3b 2623 2fbe
00000330: 1160 0c3e bad6 8b3d a1bc 8abc d38f 50bd
00000340: 5057 143e 877c 11be bdc5 01be c3ea 3d3c
00000350: 8f1c 5bbe 241e f03d 5611 da3c 109f 2e36
00000360: 62cf 0bbe e30f 2abe b7cd 10bd a21a c1be
00000370: 704c 5a3e b3b2 a739 fd87 eb3d 1d05 ce3b
00000380: 85dd d2bc 71f0 853e b8ff c33c 5821 fb3b
00000390: e35c 6d3d 6ffa 2fbb 10aa 953e 5b43 e4bd
000003a0: a345 9dbd 1990 2dbd 392e d43d b333 60bd
000003b0: 6a4d e2bd eb48 4cbd 7ec3 cb3d 3362 383e
000003c0: 8959 a13c a81a d33c 3469 fc3b 3024 87be
000003d0: f8ac 76be 4ffd 933c d57f 0d3c 12e8 d43d
000003e0: 2e94 6d3b 5446 68be bf42 b13e 1348 82be
000003f0: 9d00 813d 22b1 45bd c5a2 20ba a602 99bd
-0.1607814 0.31112313 0.14339186 0.072043546 -0.20601577 0.059366576 -0.16302495 -0.34132475
0.24789463 0.1635714 0.1184472 -0.08278628 0.1214277 0.072954096 0.0038586494 -0.07870449
0.08940445 0.10019116 0.16029686 0.022811214 -0.070269056 0.2588859 -0.07659948 -0.093407005
-0.015115399 -0.12881877 0.27489614 -0.14282842 0.086990766 0.023955368 0.071673974 -0.04267117
0.26268148 0.0953761 0.0326657 0.049685866 -0.014478369 -0.19889405 0.036415353 0.10142695
0.07888666 0.05215405 0.093366854 0.14043054 0.010869882 0.009432604 -0.00049625034 0.17542446
0.008607724 -0.1110308 -0.1548448 -0.10785475 -0.1846007 0.12897438 -0.13154574 -0.0916377
0.20748281 -0.064570926 0.16267517 -0.013042204 0.30481312 0.146174 0.051989645 0.04470545
-0.0983258 -0.17912091 -0.10891227 0.19438589 -0.05861137 0.123035714 -0.09503806 0.0067762546
0.08289642 -0.24261957 0.2792174 -0.18720934 0.110265866 -0.16110271 -0.0068253605 -0.011728777
-0.033904377 -0.21523237 0.0983981 -0.17574565 -0.046848092 0.08255658 0.024231521 0.075332396
0.0409456 -0.29750133 -0.1315857 -0.08532759 -0.16642377 -0.025966052 0.10440728 0.022724519
0.07803566 -0.07959595 0.022041494 0.026275713 -0.0008338044 0.059730187 0.029598637 -0.014797701
0.004004489 0.15396011 0.03669735 -0.08113649 -0.011901479 -0.048261616 0.05267458 0.08276867
-0.12704405 0.020859217 -0.07326901 -0.006155943 -0.068484604 -0.1765982 -0.05493322 0.02411607
0.01793416 -0.113086194 0.16871898 -0.12353491 -0.016807614 0.06531483 -0.056685742 0.023356259
-0.032881577 -0.223016 -0.22370867 -0.029382668 -0.109131694 -0.2871021 0.008956769 0.07517278
0.26616365 -0.17185439 -0.026771413 -0.08996287 0.029380899 0.0643583 0.010403543 -0.028423002
0.0862415 -0.042973675 -0.17032942 -0.032496642 0.04153594 0.34153798 0.0055010556 -0.028960092
-0.1076759 -0.099968754 0.08478547 0.18091628 -0.051059145 0.10166725 0.00016740883 -0.10629117
-0.051425822 -0.0561212 0.024675136 -0.20120469 0.16196811 -0.06396523 0.048350018 -0.105036356
-0.015296581 0.06751018 -0.05717924 -0.14808834 -0.076746665 0.04804704 -0.14487888 0.06136973
-0.01077179 0.085208446 0.009824179 -0.059824966 0.07415746 0.12384526 0.029040176 -0.15841098
0.049889762 -0.18132704 -0.26439345 0.012054243 -0.24334544 -0.012784006 -0.04711726 -0.11137079
-0.18850462 -0.047033977 0.24928024 0.09133102 -0.016036963 0.12122243 -0.262252 -0.37977138
0.18344754 -0.16562635 0.004384819 -0.17103252 0.13708521 0.06828065 -0.016935648 -0.05091841
0.14486432 -0.1420766 -0.12673087 0.011591616 -0.21397613 0.11724499 0.026619595 2.6020607e-06
-0.13653329 -0.16607623 -0.035352435 -0.37715632 0.21318221 0.00031985863 0.11500547 0.0062872306
-0.025740394 0.26160005 0.023925647 0.007663887 0.05794991 -0.002685215 0.2923131 -0.111456595
-0.07679298 -0.04237375 0.10360379 -0.054736804 -0.11049922 -0.049874227 0.099493966 0.1800621
0.019696014 0.025769547 0.007702971 -0.26394796 -0.2408942 0.018065123 0.008636435 0.103958264
0.0036251652 -0.22683078 0.34621236 -0.25445613 0.06298945 -0.04826463 -0.000612777 -0.07471208

lstm.lstm.bias_hh_l0 f4 [256]
00000000: 65f9 42be f4e8 883e a957 0f3e d971 3e3e
00000010: b81a ffbd bf23 873c 148b 4dbe b2fb aebe
00000020: e283 423e dcd3 a63b 5cc8 953e 0ef0 04bd
00000030: 0e54 103d 4044 1dbc eca5 523e febc 39be
00000040: 2e47 713e e6d3 11bc a57d 79bd 8010 28bd
00000050: e831 1cbe b6d2 8c3e 1d52 813d 4ec2 04be
00000060: c29f f2bd ffec ab3c f51e 663e f760 85be
00000070: 1b01 4f3d 6310 1a3e 1d1c bc3a 5fe3 aabd
00000080: 46b6 493e f701 c93d 208b e63c 2d19 bd3d
00000090: 9263 0ebe 4390 5abe f4e1 313e b8ad a3bd
000000a0: a148 703c c863 013e 0956 af38 0348 043e
000000b0: e352 0c3e 228b cbbc 9458 fc3d a451 1e3d
000000c0: aa09 0e3d e312 1cbe 8dba 28be b636 3abc
000000d0: ed5d 8dbd 39ca 06bd f975 c13d f3dc 643c
000000e0: d04c 713e 279a 2bbd 8377 8a3e e9d5 42bd
000000f0: 1be9 7c3e 40f3 873c 1dba 22bd 57d6 953c
00000100: 9ce4 7dbc 2051 f1bd fb7e 12be 0f0a 113e
00000110: eb3e ab3d ac55 89bd b657 43be 5337 3a3b
00000120: a9d8 2c3e cfc6 b6bd b195 2d3e dc94 35bc
00000130: 4aab 1b3e 4dd2 68bd 92f7 22be a7a5 833c
00000140: 8605 f5bd ee42 9dbd e092 09be 9364 4fbe
00000150: 342a 7dbd 4a1f ce3d 2534 fabc 67a1 efbd
00000160: 2f16 35bd 214b 22be 1b03 5ebe 94a8 28bd
00000170: 6290 13be c5df 39bd 546f 723d 45ef 8fbd
00000180: abf3 0cbd 15c9 123e 21ba 10be 815e 06be
00000190: 49ac b63c 5aba 98bd 34ee 3abc fefa b9bc
000001a0: a5f0 26bc 3e77 f4bc 6c81 07be f623 92bd
000001b0: fa8d 213e 3f39 15bd 5a75 2d3e 767f f23d
000001c0: e134 92bd ac25 19be abeb efbd ccd7 c4bc
000001d0: 7525 cabd f58a 95bc ed0e 09be aac8 91bd
000001e0: 7e96 393e 7b54 b4bd 5527 0b3d 59aa a7bc
000001f0: 9e75 86bd 0fb9 533d dcf1 fabc 7bfb 73bd
00000200: 0856 113d 30de 9abe 6a46 b7bd 8393 05be
00000210: cf23 f53c c709 71be 4b30 a43c 70e5 353e
00000220: d5df 843e 8538 40be 2f3a dbbd 1942 10be
00000230: 13b6 373d cc03 99bd 4350 fb3d bde8 1e3e
00000240: 6413 8f3e 4806 1ebd 7ba4 c2bd fbdc 753d
00000250: 75ee f43d 60bb 033e ccb2 05bd 79b3 bcbd
00000260: 3daf fc3c f9f2 3fbc e755 97bd a3e1 ba3d
00000270: 12eb 3cbd e5ba 6fbd ee90 543c 8a8f 14be
00000280: 3f5e 25be 6ca0 f63d 470a d93d e239 32be
00000290: ed65 a23d ddc3 94bd 5372 4cbb 2d6a 5e3d
000002a0: 713f 03bd 1727 143d 86e4 0ebd 31d4 9dbe
000002b0: ff5e babc 90fb aabd b7ac 4bbe cf39 13bc
000002c0: 4e2d b6bd f677 a7bd 702d 2f3d 2825 1e3d
000002d0: 1845 d93d 31f8 383e f885 e33d d65f 68be
000002e0: d14e 6e3d a6dd 7abe 098e 8dbe 2ca5 d53d
000002f0: ebd6 80be f021 463e 614a 95bd 9892 b93d
00000300: e30d 83bc 9994 743d 6261 273e ab5c afbd
00000310: 2b7a 39be 2c6e ddbd 8e0d 3abe c811 d6be
00000320: 8794 9f3e ba2e 1cbd 77af d7bc 3ff6 4fbd
00000330: 15a5 013e 44f1 3b3d a0ee 473d 7102 0e3d
00000340: 5ba1 703d 041e 013b a6b9 f8bd d7c4 53be
00000350: 288c 20be 7370 1b3e 0e76 973d 5ab5 07be
00000360: 94b0 abbd 4183 aabc 183a 893c f39a 8fbe
00000370: 7a0c d33d 8cda 9b3c e25f 5fbb a1bf f5bd
00000380: 4c65 42bd c239 b63d c003 4abc e5cf 53bd
00000390: 27f2 93bd 1e8c 86bd f070 373e ab1b 8cbd
000003a0: 58db 853c 7b1b 5b3d 2817 b6bc e6ba 4ebd
000003b0: f955 cd3d c8fb aebd 1fa6 c93c 7b79 e83d
000003c0: d207 f43d 8df6 053d 1f6d 453d 7091 9cbe
000003d0: 6148 4dbe ef83 bf3d 4d00 d03c fc0e c6bc
000003e0: 54fd bc3d c2f2 1dbe 2a1f 4a3e b3a4 3abe
000003f0: 609e 3d3e 619e 06bd f9cb 273d 741f abbd
-0.19040449 0.2674023 0.13998283 0.18598117 -0.12456268 0.016496537 -0.20072585 -0.34176403
0.18995622 0.0050911736 0.29254425 -0.032455496 0.03523641 -0.009598792 0.20571107 -0.18138501
0.23562309 -0.008900618 -0.06091084 -0.04103136 -0.15253413 0.2750451 0.0631449 -0.12964746
-0.11846878 0.020987032 0.22472747 -0.2605054 0.050538164 0.15045314 0.001435164 -0.08344149
0.19698438 0.09814828 0.028142512 0.092333175 -0.1390517 -0.21344094 0.1737135 -0.079921186
0.014665754 0.1263572 8.3606756e-05 0.12918095 0.13703494 -0.024846617 0.123215824 0.038652077
0.034677185 -0.1524158 -0.16477413 -0.011365583 -0.069026805 -0.0329077 0.094463296 0.013968694
0.23564458 -0.041895058 0.27044305 -0.047567282 0.24698298 0.016595483 -0.039728273 0.018290682
-0.015496399 -0.117830515 -0.14306252 0.14163993 0.0836161 -0.06705794 -0.19076428 0.0028414323
0.16879524 -0.089246385 0.16951634 -0.011082854 0.1520206 -0.056841183 -0.15914753 0.0160702
-0.11963944 -0.076787814 -0.13434935 -0.2025321 -0.061807826 0.10064562 -0.030542443 -0.11700707
-0.04421061 -0.15848972 -0.21680872 -0.041176394 -0.14410546 -0.04537942 0.059188202 -0.07028059
-0.034412067 0.14334519 -0.14133503 -0.13121988 0.022298949 -0.07457419 -0.011409331 -0.02270269
-0.01018921 -0.029842015 -0.13232964 -0.07135765 0.15776816 -0.036431547 0.16939297 0.118407175
-0.07138992 -0.14955777 -0.11714872 -0.024028681 -0.098704256 -0.018254736 -0.133846 -0.07118352
0.18123814 -0.08805176 0.033973057 -0.02046697 -0.065654024 0.051690158 -0.030632906 -0.059566002
0.035482436 -0.3024764 -0.08948977 -0.13044553 0.029924301 -0.23538886 0.02004256 0.17763305
0.2595202 -0.1877156 -0.10704457 -0.14087714 0.044851374 -0.07471427 0.12271168 0.1551847
0.2794448 -0.03858021 -0.095040284 0.060025197 0.119595446 0.12864447 -0.032641217 -0.09213919
0.030845279 -0.011715644 -0.073894314 0.09125068 -0.046122618 -0.058527846 0.012974007 -0.14507881
-0.16149233 0.12042317 0.105976634 -0.17404893 0.07929597 -0.072639205 -0.0031196072 0.054300476
-0.032042924 0.03617009 -0.034885906 -0.30825952 -0.022750376 -0.08348763 -0.19890104 -0.008985951
-0.0889536 -0.081771776 0.042767942 0.038609654 0.10608882 0.18063428 0.11109537 -0.22692809
0.058180634 -0.24498615 -0.27647427 0.10431895 -0.2516397 0.19348884 -0.07289577 0.09061164
-0.015997833 0.059712026 0.16345742 -0.08562597 -0.1811301 -0.10812029 -0.18169233 -0.4181044
0.31168005 -0.0381305 -0.026328785 -0.050771948 0.1266063 0.045884386 0.048811555 0.034670297
0.05874763 0.0019701729 -0.12144785 -0.20680557 -0.15678465 0.15179615 0.07395564 -0.13252774
-0.08383289 -0.02081454 0.016751334 -0.28047904 0.10305114 0.01902511 -0.003408425 -0.11999441
-0.047459885 0.08897735 -0.012329996 -0.051711936 -0.07223921 -0.06569694 0.17914176 -0.06841215
0.016339943 0.053493004 -0.022227839 -0.05047121 0.100261636 -0.08544117 0.024615346 0.113512956
0.11915554 0.032705832 0.04819977 -0.3057971 -0.20047142 0.09351336 0.025390768 -0.024177067
0.09228006 -0.15424636 0.1973845 -0.1822689 0.18517447 -0.032865886 0.040966008 -0.083556086

fc.weight f4 [1, 64]
00000000: 621a 27be 7bdc 743e a4ab a13e 9024 1bbd
00000010: 4e1c b4be aedd 0c3f ede1 d93e e20e 90bf
00000020: 538b 8d3e 2092 053e c516 29be 14e3 4e3e
00000030: 354c 2f3e 74c8 a43d 172e a73e c405 343e
00000040: 64d6 66be c854 14be 792f 833d 2a3c 743d
00000050: 78b2 c03d ea58 e7be 12fb 3fbe 3733 c73d
00000060: 61c6 8f3e 7726 bebd 408d b73e af62 83bf
00000070: 3745 1a3e 1cf3 32bd 1f75 733e 4af4 ac3e
00000080: 3b3d 66be a5e7 9c3e 3274 3e3e 062f 8b3d
00000090: 890f b8bd 9e67 a13e f9a7 593e 5bed 89be
000000a0: 57d5 953e cbf1 25be d428 1d3e c66e e33e
000000b0: 9888 6cbe 268e 8abe 0ce4 e6bd 8192 6e3e
000000c0: c7e9 3a3e 7375 493e 9374 8fbd 5943 d5bd
000000d0: e852 353e a065 aebd 185c b23e 7952 37be
000000e0: cfec 033e ad58 2a3f 053d c93e e329 c23e
000000f0: 6e66 e13e f6a4 cabd 2b73 073f 5cd5 00be
-0.16318658 0.23912232 0.31576264 -0.037876666 -0.35177845 0.55025756 0.4255518 -1.1254542
0.27645358 0.13044024 -0.16512592 0.20203811 0.17118914 0.08046046 0.3265235 0.17580324
-0.22542721 -0.14485466 0.06405539 0.05962769 0.0940904 -0.45185024 -0.1874812 0.09726565
0.2808104 -0.0928468 0.35849953 -1.0264491 0.15065466 -0.04368888 0.23775147 0.33780128
-0.22484295 0.3064548 0.18599012 0.067960784 -0.08987338 0.31524366 0.21255483 -0.269389
0.29264328 -0.16205518 0.15347606 0.4442045 -0.23098981 -0.27061576 -0.11273965 0.23298074
0.18253241 0.1967371 -0.07004657 -0.10413236 0.17707407 -0.08515477 0.34835887 -0.17902555
0.12883304 0.6654156 0.39304367 0.37922582 0.4402346 -0.09894745 0.5291011 -0.1258139
